model_weights.pth (torch_old, 28405 bytes, 6 tensors)

fc1.weight f4 [64, 37]
000000 f9 41 35 bd 58 71 11 3d fd 15 f3 bd 59 d2 22 be
       -0.04425237 0.035508484 -0.11869428 -0.15900554
000010 4d fa d0 bd ce ca a1 bd ec a1 0d 3d a6 db 74 3d
       -0.10203991 -0.0790001 0.03457825 0.059779786
000020 15 a1 52 3d cc 34 2b 3e 91 34 ca 3c a2 64 e6 bd
       0.05142315 0.16719359 0.024683269 -0.11249663
000030 b4 67 24 be 75 7e 95 be a0 7a 4f bd e7 f6 31 bd
       -0.16055185 -0.29198042 -0.050654054 -0.043448355
000040 46 07 9d 3c e8 92 93 3d d6 8d 16 bd 16 0e a2 3c
       0.019168507 0.072057545 -0.03675636 0.019782107
000050 bd 3c d5 3d 7d 09 ba 3d 04 37 d2 bd 92 c0 27 3d
       0.104119755 0.09083841 -0.102644 0.040955134
000060 b1 1f 9d be 47 fe a2 bc 15 f0 78 3d f3 79 b3 bd
       -0.3068824 -0.01989664 0.060775835 -0.08763494
000070 94 8a 98 bd 2c 7d 2b bc fb 13 7c 3d 92 a1 05 bd
       -0.07448307 -0.010466855 0.061542492 -0.03262479
000080 e7 e8 1c be 72 c7 97 be 2e 96 e1 be 2c f2 7f be
       -0.1532322 -0.29644352 -0.4405989 -0.24994725
000090 dc 77 e5 bc 04 ec 7a 3e f5 ae 6b 3d 76 71 14 3e
       -0.028011255 0.24504095 0.0575399 0.14496407
0000a0 d4 9e b3 3c 7e dc eb bd 8a f6 62 3e ff 98 0b be
       0.021926321 -0.11516665 0.2216436 -0.13632582
0000b0 64 ce 25 be ee e0 91 be dc ba 35 bf 01 fd a1 3d
       -0.16192013 -0.2849192 -0.7098825 0.07909585
0000c0 66 5e fd 3c 2e 29 f9 3d ef b8 03 3e 3b d6 29 3e
       0.030928802 0.121660575 0.12863515 0.16585629
0000d0 38 54 3d 3e ae 81 32 3d d0 56 02 3e cc 22 f3 bc
       0.18489158 0.043580703 0.12728429 -0.029679678
0000e0 80 53 86 bd 73 5c da bd 8e 10 52 bd cc 66 e2 3b
       -0.06558895 -0.106621645 -0.05128532 0.006909227
0000f0 d1 b3 ed 3d 3b c9 87 3e 88 a2 30 3b 6a bb b4 3d
       0.11606563 0.26520714 0.0026952345 0.08824809
000100 6c 12 a0 3d 0a de 85 3d d0 e0 b4 3d 06 c3 cd 3d
       0.07816014 0.06536491 0.08831942 0.100469634
000110 67 a6 26 3e 17 bd 33 3e d4 e9 26 3d 89 2f ac 3d
       0.16274415 0.17552601 0.04075034 0.08407504
000120 6a ef 05 bd b6 b9 1c 3d 69 84 47 bc 7b de 38 3e
       -0.032699026 0.038263045 -0.012177565 0.1805362
000130 7a 39 0a 3e e2 7c 64 3c ec 7a 0b 3d 00 df be be
       0.13498488 0.01394579 0.034052774 -0.3727951
000140 bb 3b 7a 3d e0 48 a4 3e 07 bc e8 3d 7f 39 2b bf
       0.06109212 0.3208685 0.11363988 -0.6688461
000150 b4 26 8d 3d ab cc 1f 3d c4 5c a9 bd d1 2f 9c 3d
       0.06892148 0.039013546 -0.08269647 0.07626308
000160 ba 80 9e bd bd 51 11 be e3 30 36 3e f7 bd e2 3d
       -0.077393964 -0.14191337 0.17792086 0.11071389
000170 4f 84 4e 3e 95 13 85 bd 26 5c e6 3c 5a 5a a2 3d
       0.20167659 -0.064978756 0.028120112 0.079273894
000180 cd ae b6 ba b6 67 a0 bd ca c3 86 bd f0 4e 34 be
       -0.0013937593 -0.07832281 -0.065803126 -0.17608237
000190 61 cf 28 3e 9f 70 3a 3e 83 b0 0d 3e 19 be a3 be
       0.16485359 0.18207024 0.13836865 -0.3198097
0001a0 82 02 52 bd e8 46 38 3c 89 76 44 bd 8d 59 34 be
       -0.051271923 0.011247374 -0.047964606 -0.17612286
0001b0 d6 8d 81 bd a4 9e 95 bb 17 51 ae bc a5 44 1e 3e
       -0.06325881 -0.0045660306 -0.021278901 0.15455873
0001c0 52 17 af 3d 43 df a1 3d b4 9f 5f bd b9 18 08 be
       0.0854937 0.07903912 -0.054595664 -0.13290681
0001d0 fd ed 02 be 28 45 45 bd 1d b2 9b 3d 26 a1 1e 3e
       -0.12786098 -0.048161656 0.07602332 0.15491161
0001e0 26 ed d3 3d 2d 94 df 3d 99 f5 ca bd be b7 13 bd
       0.10347967 0.10916934 -0.09910125 -0.036063902
0001f0 91 e3 50 be 95 e2 a4 be 89 84 c5 bc 67 16 e9 bc
       -0.2039931 -0.32204118 -0.02411105 -0.028453065
000200 fe 63 78 bc 1e 09 e4 bd fd a3 cb 3c 07 87 4d 3e
       -0.015160559 -0.111345515 0.02485847 0.2007104
000210 76 34 b0 be ef e8 1f be 76 6c 1f bd 5c e7 2e bf
       -0.34415025 -0.15616201 -0.038921796 -0.68321776
000220 30 02 01 3e 85 41 69 bd ab 79 1e 3d 1a 9f 8f 3d
       0.1259849 -0.05694725 0.03869025 0.07012768
000230 86 65 61 3e e7 c2 35 3d bc a2 87 3e ce 01 06 3c
       0.22011384 0.044375326 0.26491344 0.008179141
000240 61 a4 67 be 0d 06 63 3c e7 04 e9 3b eb 92 ab bb
       -0.226213 0.013856423 0.00711118 -0.00523602
000250 78 d4 ea bd b5 bd dc bd 2e 17 9d bd cc 4d 20 be
       -0.114663064 -0.10778371 -0.07670437 -0.15654677
000260 da f8 19 bd 8d d4 86 3e 10 3a fd be 17 b8 f1 be
       -0.03759084 0.26334038 -0.4945836 -0.47210762
000270 1f c7 d8 be 7a b7 ba bf 3a b9 c9 3c f1 ff ba 3b
       -0.42339417 -1.4587243 0.024624456 0.00570678
000280 2e 9a e8 bc 84 a5 7f bd 62 1d 6f bd ad 6e d1 bd
       -0.028393831 -0.062413707 -0.05837763 -0.10226188
000290 29 53 64 bd d3 5c bf bc 34 ae 5e 3d 51 37 e0 3d
       -0.05574337 -0.023359692 0.05436535 0.10948051
0002a0 ec e1 46 bd 5a 8b 9d bc 96 fe a8 3d 45 fb bc 3c
       -0.0485553 -0.019231487 0.082516834 0.023069033
0002b0 0d ef 43 3e fc 6a b1 b9 a9 63 a6 3d 76 e8 0a 3e
       0.1913416 -0.0003383978 0.081244774 0.1356524
0002c0 41 84 5b 3d cf 16 05 3e 1c 9a 89 3d a8 97 a3 3c
       0.053592924 0.12996982 0.06718847 0.019969776
0002d0 91 8c d8 3d 56 0c fd 3d 29 f4 79 3e e4 d9 47 bb
       0.10573686 0.123558685 0.24409546 -0.0030494863
0002e0 34 90 5b 3b 85 a9 a2 3d a9 e1 00 3b 8f 2c 4a bd
       0.00335027 0.079424895 0.0019665754 -0.0493589
0002f0 4c 05 23 bd f0 74 01 3e c0 00 a9 3e 1e e0 99 bd
       -0.039799973 0.12642264 0.33008385 -0.0751345
000300 61 45 e5 be e1 0e 7e be ac a0 9b bf a9 9b 60 bd
       -0.44779494 -0.24810363 -1.2158408 -0.05483595
000310 22 26 04 bd 23 c2 57 3d 2d 1c 8a bc af b3 9b bc
       -0.03226293 0.052675378 -0.016859138 -0.019006578
000320 0c ac 4b 3d 0e 5f cf 3d bf 48 5b bd cc c6 a4 bd
       0.049724624 0.10125552 -0.053536173 -0.0804573
000330 e4 c4 f0 bd d6 83 31 3e fb 2f 2a 3d b1 dd 82 3d
       -0.11756304 0.17335448 0.041549664 0.063899405
000340 9e aa ff 3d 58 34 27 3d f0 f6 1a 3d 6c 36 f5 bc
       0.124837145 0.040821403 0.037833154 -0.029933177
000350 52 d9 23 3d 8a cc e7 3d 52 0b 14 3d bb 3b 99 3d
       0.040002175 0.113183096 0.03614361 0.07482096
000360 29 28 29 bd b0 08 3a bd b0 e4 15 3e ed d8 83 bc
       -0.041298065 -0.04541844 0.14638019 -0.01609465
000370 1a e4 4b 3d b7 ce 31 3d 3f 01 4d bd 73 77 7b 3d
       0.04977808 0.04341003 -0.050050016 0.061393213
000380 f0 73 fa bd 37 4e 4b 3d 7d 91 49 bc 16 32 f7 bd
       -0.122291446 0.04963514 -0.0123027535 -0.120701
000390 0e b7 17 be bd 15 e4 3c 03 9d 82 bd bc 8d 64 3d
       -0.14815924 0.027842397 -0.06377604 0.05579923
0003a0 dc 60 a3 bc 90 62 2d 3e a9 d3 a8 bd ce e1 65 3c
       -0.019943647 0.1693213 -0.08243496 0.014030887
0003b0 f8 ac d0 3d 0d a5 0f be f6 0e 1f be ee 28 04 ba
       0.10189241 -0.14027806 -0.15533051 -0.00050414994
0003c0 70 a5 40 3e 58 c0 a4 3d 29 38 9e bd e5 d1 ba bd
       0.1881311 0.08044499 -0.077255554 -0.091220655
0003d0 16 bc af 3d 93 19 05 be de 14 82 3d 19 31 2d be
       0.085807964 -0.12998037 0.06351636 -0.1691326
0003e0 48 74 96 bd 6c fc b8 bd 92 09 18 bd 28 3b 9c 3a
       -0.07346398 -0.09032521 -0.037118502 0.0011919485
0003f0 5f f7 59 3d 5b 08 9c bd 38 e5 03 bc 81 c8 ad bd
       0.053214427 -0.07618781 -0.0080502555 -0.08485509

fc1.bias f4 [64]
000000 24 6f ad 3d d4 21 99 3d 31 f7 6a bd bc 95 6b bd
       0.08468464 0.07477155 -0.057364646 -0.057515845
000010 75 3a 4a 3e 89 47 99 3c b5 2c d0 bd 24 c5 9a 3c
       0.19748862 0.018710868 -0.10164777 0.018892832
000020 cc f7 ba bc 43 13 04 be 02 31 17 3e eb 4c 2f 3e
       -0.022823237 -0.12897973 0.14764789 0.17119186
000030 15 6a f7 3d de 2d ec 3b a3 df 08 bd be a9 92 bd
       0.120807804 0.007207616 -0.0334164 -0.07161282
000040 88 70 2f 3c 42 af b7 bd a7 12 3b 3c f8 51 43 be
       0.010707982 -0.08968975 0.011418021 -0.19074237
000050 9a 2f bd bd 3b 6f 5d 3b 0e f2 4e 3c c0 2f 3b bd
       -0.09237595 0.0033788222 0.0126309525 -0.045699835
000060 07 4e 35 be 0a 21 43 3e 97 8b ef bd ec 6c 82 be
       -0.17705546 0.19055572 -0.116965465 -0.25473726
000070 92 4c 19 3e d2 17 5d 3e c3 64 1e be 54 1f 7a be
       0.14970616 0.21591118 -0.15468125 -0.24426013
000080 36 e0 13 3e 64 f7 f0 bc fa d6 95 bd 90 ec 8d 3d
       0.14440998 -0.02941484 -0.07316394 0.06929886
000090 64 37 94 bd 7e 94 39 3d 0a 02 6e bd 92 cf 25 be
       -0.072371274 0.04530763 -0.058107413 -0.16192463
0000a0 05 04 6b be a4 eb 26 bd 16 eb 0c be 52 02 24 3e
       -0.22950752 -0.04075207 -0.13761553 0.1601651
0000b0 6b fe b6 bc b9 4c 10 be 42 67 67 bb 41 43 33 be
       -0.022338113 -0.14091767 -0.003530935 -0.17506124
0000c0 05 6c 09 be 2b 28 24 bd 39 91 20 be d9 19 e2 3d
       -0.13420112 -0.04007737 -0.15680398 0.11040086
0000d0 1e a5 fc bd b2 3a ea bd f3 bf 4d be 7d d6 3f bd
       -0.12336181 -0.114369765 -0.20092754 -0.04683541
0000e0 e8 58 04 3d 76 ad 5c bd c2 3a 0a be f0 f0 01 be
       0.03231135 -0.053876363 -0.13498977 -0.12689567
0000f0 3f 74 30 3d 96 36 31 3d 87 66 94 3c 9a a1 14 3d
       0.04307961 0.043264948 0.018115295 0.036286928

fc2.weight f4 [64, 64]
000000 cb fb dc 3d de 7f 34 bc 00 f6 1c 3e 24 53 2c 3e
       0.10790213 -0.011016814 0.15328217 0.1682859
000010 8c f0 90 3d 79 92 56 bd 7b eb 2b 3c 98 68 eb 3d
       0.07077131 -0.05238578 0.010493155 0.11494559
000020 c6 91 07 3e ed d0 6b bd 26 ab 44 3d c6 2a b2 be
       0.13239202 -0.057572294 0.048014782 -0.3479826
000030 0e 95 f8 be f1 3c fd 3d a2 57 31 bd 35 d2 da 3d
       -0.4855122 0.12365139 -0.043296464 0.10684625
000040 ce d8 74 bd 71 75 59 bd df fa a7 bc b4 ea b0 3d
       -0.059777074 -0.053090516 -0.020505367 0.08638516
000050 7f 87 fd 3d 4c 95 57 3d 6c 7d 0a 3e 80 8c 80 be
       0.123793595 0.052632615 0.13524407 -0.25107193
000060 3a dd 05 be dd 22 f6 3c c4 9b 1f 3e ce 1a 1b 3e
       -0.13072672 0.030045921 0.15586764 0.15146944
000070 05 76 ca 3d b9 d4 0d be 6b a4 85 3d 1e b9 97 bd
       0.09885792 -0.13850679 0.06525501 -0.07408355
000080 15 45 b5 3d cb 77 9f 3e 74 20 40 3d 11 5b f1 3c
       0.08851067 0.31146082 0.04690595 0.02946237
000090 18 5e 36 bd 56 69 a6 3d 14 2a d2 3e 74 26 ed bd
       -0.04452333 0.0812556 0.41047728 -0.115796
0000a0 b1 d6 e8 bc 10 a3 4f be c8 98 8d 3c fa 16 10 bd
       -0.028422685 -0.20277047 0.017284766 -0.035178162
0000b0 20 0e 05 3d 71 4c 1b bd d1 b8 9b be f9 09 2d 3d
       0.032484174 -0.037914697 -0.3041444 0.04224584
0000c0 68 bf fc 3c e2 fb 05 3d c1 5b a1 be 72 93 96 3c
       0.030852988 0.032710917 -0.31515315 0.018380854
0000d0 f8 8a 00 bd 65 1a 5f bd 4e 11 fa 3c 16 54 d4 bc
       -0.03138253 -0.05446853 0.03052583 -0.025919002
0000e0 52 b9 eb 3d 3b cb 54 be dd bf 95 be 15 9f d8 bd
       0.115099564 -0.20780651 -0.29247943 -0.105772175
0000f0 22 4f cb bc 31 f5 01 3e ee ad 5f be df e0 57 be
       -0.024818007 0.1269119 -0.21843693 -0.21081875
000100 d1 c7 ab 3d 49 34 fe 3d f1 42 68 be 29 5f 89 3d
       0.08387721 0.12412316 -0.22681786 0.067076035
000110 b0 ef 78 3e f8 70 bb 3d 14 9e 61 bc 0e 0d 6e 3c
       0.24310184 0.091524065 -0.013770599 0.01452948
000120 81 fc e5 bd 2c 65 67 bd 13 79 eb bc f9 37 e4 3d
       -0.11229802 -0.05649297 -0.028744256 0.111434884
000130 c9 cf 2e be 59 d9 8d 3d ff 25 62 be 81 01 ac 3c
       -0.17071451 0.069262214 -0.22084807 0.02099681
000140 f7 65 d2 3c a1 33 66 3d aa 86 2c 3d a9 3b 61 bd
       0.025683386 0.05620158 0.042120613 -0.054988537
000150 f9 85 ce 3c a4 a6 62 bb de 7a 33 3c 16 72 92 3e
       0.025210368 -0.0034584189 0.010954587 0.28602666
000160 57 28 b9 bd cd 8e 0b 3e 98 9f fd bd bc 71 92 bc
       -0.09040897 0.13628693 -0.12383956 -0.017876498
000170 3b 7e 03 3e c7 fd 48 3d d2 89 91 3d c2 5a 11 be
       0.12841122 0.049070146 0.07106365 -0.14194778
000180 74 9a 88 bd 1c 61 e7 3a 19 9a e3 3c 41 d8 6d bd
       -0.066700846 0.0017652842 0.02778344 -0.058067564
000190 e4 b9 ab 3d 77 ab 04 3e 1a 17 84 3e 88 f0 97 be
       0.08385065 0.12956034 0.25798875 -0.29675698
0001a0 fb e5 8f bd e0 46 f7 3d 7c e7 ab bb ae bd 87 bd
       -0.07026287 0.12074065 -0.005246101 -0.066279754
0001b0 c1 0d fa bd 18 37 98 bd a9 7a b4 bd da 5f db bd
       -0.122096546 -0.07432383 -0.08812458 -0.107116416
0001c0 ea 03 91 bd 71 86 73 3d 2e d9 8f bd ec 2a 0f 3e
       -0.07080825 0.059454385 -0.070238456 0.13981217
0001d0 0f 2f 44 bd a4 d2 b2 bc d0 de c6 bd e6 c4 06 3d
       -0.04789644 -0.021828957 -0.09710467 0.03290262
0001e0 79 e5 a8 bc 80 f7 12 bd 12 df df 3d 03 45 89 bc
       -0.020617234 -0.035880566 0.10931219 -0.01675654
0001f0 3d ab 34 be b5 25 d1 3d f0 04 ae bd 02 cd a4 bc
       -0.17643447 0.1021227 -0.084970355 -0.020117287
000200 75 dd 18 3d 9c 35 f5 bd a8 76 ed 3d 75 13 b8 3d
       0.037320573 -0.11973116 0.115948975 0.08988086
000210 cd 7d b7 be 5b 1b 88 bd b0 2f 35 be 23 56 a9 bc
       -0.35838166 -0.06645843 -0.17693973 -0.020670956
000220 38 a2 35 3e 60 c9 ba bd 42 ac bc 3d 01 99 35 be
       0.17737663 -0.091204405 0.09212543 -0.17734148
000230 39 1c f8 3e c5 c5 38 3e 14 45 5f 3d 0e 98 21 3d
       0.48459032 0.18044193 0.054509237 0.03945165
000240 62 3f 0a be ce 0c f8 bd ea 5d b6 3d ec 7c 05 bd
       -0.13500741 -0.12111817 0.089046314 -0.032589838
000250 23 8a 5a bd 86 12 09 3e 55 93 1d be 09 2b 18 be
       -0.053354394 0.13385972 -0.15388234 -0.14860167
000260 fd e9 3b bd e0 97 21 3d 2c d2 1b 3e 28 56 63 3c
       -0.045877445 0.03945148 0.15216893 0.013875522
000270 2a 73 e3 bd ad 86 11 3e 2b 16 c6 3c dd 7f 89 bd
       -0.1110595 0.14211531 0.024180492 -0.06713841
000280 40 76 c8 3c e0 3f cd 3c c7 bb bb bd ff 94 f2 3d
       0.024470448 0.025054872 -0.09166675 0.11844825
000290 04 a1 10 3e 88 9d 7d bc 7f 34 f5 3e ac de 0a bd
       0.14123923 -0.015479453 0.47891614 -0.033903763
0002a0 5e df 86 3e 43 68 0a be 14 c6 aa bd f5 a1 87 bd
       0.2634229 -0.13516335 -0.08338562 -0.06622688
0002b0 d5 0f 07 3d b3 d2 cb 3d e5 b5 cb 3d 71 c3 37 be
       0.032974083 0.09952297 0.09946803 -0.17945649
0002c0 fb 22 f6 3d 44 a0 a5 3c 7d 22 13 3e 92 6d 37 be
       0.12018391 0.020218022 0.14368625 -0.17912892
0002d0 6e 05 32 be d3 2e 44 3e 5b 80 74 be b1 6b 8e 3c
       -0.17384884 0.19158487 -0.23877089 0.017385336
0002e0 4f b0 1b be 93 26 d4 be dc 99 be bd 11 1a aa 3d
       -0.15203975 -0.4143568 -0.0930669 0.08305753
0002f0 5d 12 7e 3d c5 c2 1b be 07 fe 34 bd 91 7b 10 bd
       0.06202923 -0.15211017 -0.04418757 -0.035274092
000300 ac 76 0b 3a 67 6b d4 bd de e6 0a 3c d7 0f dc 3d
       0.00053201127 -0.10372048 0.008477895 0.10745209
000310 31 fd 87 3d 16 5c 7c 3d 52 6c c3 bd 90 81 87 3e
       0.06640089 0.061611257 -0.09542145 0.26466036
000320 4b b3 03 bd cf 59 51 bd 73 68 e0 3c 97 d7 c0 bd
       -0.03215341 -0.05111104 0.027393555 -0.094161205
000330 85 f5 23 bf 82 df 41 3e 4a dc b1 3d 70 f9 0b 3d
       -0.6404651 0.18932918 0.08684595 0.03417343
000340 d1 2e ba bc 81 6a 86 bd c2 61 56 bd 2c a5 26 bd
       -0.022727402 -0.06563283 -0.052339323 -0.040684864
000350 91 c5 d6 3c d3 a8 27 3d ad f6 ce bd 9c cb 2e 3b
       0.026217254 0.040932488 -0.101056434 0.0026671654
000360 be 23 fd bc 7c ba 1b 3e 37 dd 06 3e ad 8a e2 3d
       -0.030900832 0.15207857 0.13170324 0.110616066
000370 ee af 39 3e ad 70 4f be 0d fc 3c 3d 58 c5 ad 3a
       0.18133518 -0.20257826 0.04613881 0.0013257666
000380 7d 22 cc 3c 0c 3b ab 3e c6 3e 9b 3d 57 1b 0a 3e
       0.024918789 0.33443487 0.075803325 0.13486992
000390 b5 3f 16 bd 89 ca 0e 3d f0 8a f8 3e f1 47 b7 bb
       -0.03668185 0.03486112 0.485435 -0.005593293
0003a0 b3 55 83 3d 95 6f ef bd 99 92 06 be 02 6b 80 3d
       0.0641283 -0.116912045 -0.1314186 0.0627041
0003b0 1e 9f 2a bd 2c cd 8c 3d d0 a1 45 bd 57 94 dd 3d
       -0.041655652 0.06875071 -0.04825002 0.10819309
0003c0 a3 f9 07 3e 62 15 41 bd a5 f1 f4 be 01 0c 28 3d
       0.13278823 -0.047139533 -0.4784061 0.041027073
0003d0 80 05 2a 3e ca 39 6d bd 06 ff 04 3d 0a 4b f6 bc
       0.1660366 -0.05791644 0.03246977 -0.030065078
0003e0 f5 1a 16 bd fc 99 61 be e6 21 6a be ad 23 20 3e
       -0.036646802 -0.22031397 -0.22864494 0.15638609
0003f0 b9 c0 2d bd 8b f1 0b bc c0 17 14 be 99 dd 63 be
       -0.042420123 -0.008541475 -0.14462185 -0.22252502

fc2.bias f4 [64]
000000 bc 6e 8e bc 28 24 8b 3c 41 31 bf 3d 01 8d ea 3d
       -0.017386787 0.016985014 0.09335566 0.114526756
000010 33 44 26 3e bd 54 2b be 1b 57 c5 bd 78 de bb bc
       0.16236953 -0.16731544 -0.09635755 -0.02293323
000020 84 4f 41 3d b8 96 9c 3e ea a2 59 bb 51 b8 58 3e
       0.047194973 0.3058374 -0.0033208677 0.21164061
000030 3d 99 67 3e 63 78 9a bd bf b7 9b bd 11 e8 15 3b
       0.2261705 -0.07542493 -0.07603406 0.0022873918
000040 55 7a e7 3d 54 fd 03 3c 6d c6 c9 bd 94 c0 f7 3d
       0.1130263 0.008056004 -0.098523 0.12097278
000050 62 cf 5f 3e a1 71 be 3e 3e 45 c9 bd 33 df bf bd
       0.21856454 0.37196067 -0.0982766 -0.09368744
000060 40 66 ec bc 45 00 05 be b7 50 1d 3e 5e 84 ca bd
       -0.02885735 -0.12988384 0.15362822 -0.09888528
000070 c1 94 04 3d 3c 6a 2d 3e 61 d5 f5 3d e1 cf 1f b9
       0.032368425 0.16935056 0.120035894 -0.00015240863
000080 f6 83 fd bb e2 44 17 3e ad 6b 4d 3d fc 7f b1 bd
       -0.0077366782 0.1477237 0.050151516 -0.08666989
000090 8a 6b c4 bd 7c 30 96 bd 24 e0 e0 3d 72 aa c2 bd
       -0.09590824 -0.073334664 0.109802514 -0.09505166
0000a0 dc c2 d3 bd 18 50 bf 3e 26 da 4c 3e 23 cb 58 3d
       -0.10339901 0.37365794 0.20005092 0.0529281
0000b0 90 f0 99 3d c8 57 80 bd 3a 8e 37 3e c1 0b 7c bd
       0.07516587 -0.06266743 0.17925349 -0.061534647
0000c0 14 7a cd 3c 9e 21 4b bd 1a 55 fd bc b8 32 99 3e
       0.025082625 -0.049592607 -0.030924369 0.29921508
0000d0 6a b0 10 3c 8e 94 c6 bc 5d b9 ca 3d df de f7 bc
       0.008831123 -0.024240758 0.098986365 -0.03025764
0000e0 1d d2 18 be 6a 86 97 bd ab ee 00 bd 3b a2 d7 bd
       -0.14923902 -0.07398684 -0.03147761 -0.1052899
0000f0 75 b7 30 3d bb 90 74 3e 39 94 ed 3d 25 75 d9 bd
       0.04314371 0.23883335 0.11600537 -0.10618047

fc3.weight f4 [4, 64]
000000 57 ad 10 3d da 1c e9 3d 0a 5c 95 3e dc 41 0b 3d
       0.03532156 0.11382456 0.29171783 0.033998355
000010 59 5b 33 3e c5 42 0e be 8f 87 03 3e d1 e9 f9 bd
       0.17515315 -0.13892658 0.1284468 -0.122028
000020 bd b0 28 3d 79 17 ae 3d e2 3a 6b 3d 53 e3 5b 3e
       0.041184176 0.08500571 0.057429202 0.21473436
000030 4e f5 6b 3d 15 c2 a4 bb d3 d0 57 bc bc 2c af bd
       0.057606988 -0.005028019 -0.013172346 -0.08553454
000040 e3 05 a7 3e f8 85 19 3e 16 0a 5d bc ca c0 28 3e
       0.3262168 0.14992511 -0.013491174 0.16479793
000050 ea 0f 93 3d 65 d4 ff 3d da 21 fa bc 73 ff 74 bc
       0.0718077 0.12491683 -0.03053372 -0.014953482
000060 b6 74 0f be 95 0f 9b bd 50 da 07 3d d8 47 82 bd
       -0.14009365 -0.075713314 0.033167183 -0.06361359
000070 93 fe fe 3d e1 fd df 3d 2c 60 bd be 97 34 3a 3e
       0.124509 0.109370954 -0.36987436 0.18184124
000080 2d c5 f4 3e 5d e3 1f 3e 15 3f ab 3d 31 c8 b5 bb
       0.47806683 0.15614076 0.08361641 -0.0055475463
000090 e9 9c 44 3e 52 d9 b6 be a3 da 3a 3c bc 4b 86 bc
       0.19200481 -0.35712677 0.011404666 -0.016393535
0000a0 cd 7e 13 bc df e1 00 3e b2 2b 37 3e 06 b7 a3 3d
       -0.0090024 0.12586163 0.17887762 0.07993893
0000b0 10 f2 62 3e 44 3f 79 bd aa ce 0f 3e 8a 6b eb 3c
       0.22162652 -0.06085135 0.1404368 0.028737802
0000c0 3b ef b7 bc c8 b7 22 3e 58 c7 18 bd cf 4c 28 3e
       -0.022452941 0.1589042 -0.037299484 0.1643555
0000d0 41 6d 13 3e 47 cd ed bd af aa 26 3d 9a 75 36 bc
       0.14397146 -0.11611419 0.04069012 -0.011136437
0000e0 77 ba 41 be 90 73 26 be 1a 78 29 bd 42 3a a4 bd
       -0.18918787 -0.16255021 -0.041374303 -0.08018924
0000f0 06 88 39 3d 02 90 29 3e 46 42 38 3d ba 56 23 3c
       0.045295738 0.16558841 0.04498508 0.009969408
000100 97 1e fb 3d ec cb ab 3d cd c4 8c 3e 52 c4 86 3d
       0.12261694 0.083885044 0.27493897 0.06580414
000110 39 5b 02 3e 6a e1 67 bd c0 71 c9 3c 5d 98 00 be
       0.12730111 -0.056611456 0.024590373 -0.12558122
000120 3b 1a 29 3c ac 68 d4 3d a1 18 18 3e 7c 10 01 3e
       0.010321195 0.10371527 0.14853145 0.12603945
000130 5e a9 70 3c 9b 19 bb 3c 7b a2 70 bd f6 c4 90 3d
       0.014688818 0.022839358 -0.058748703 0.07068817
000140 ef b6 4c 3e 13 ee 71 3e dc 86 ac bd db f9 23 3e
       0.19991659 0.23625974 -0.0842416 0.16013281
000150 ad 42 04 3e 1c 40 13 3e ed cc 29 bd 11 20 68 3d
       0.1291606 0.14379925 -0.041455198 0.056671206
000160 51 40 79 bc 86 c3 3e be 75 d6 25 3d 5c b2 0a 3d
       -0.015213088 -0.18629274 0.040487725 0.033861503
000170 63 4b c8 3b d6 e0 1b 3e 41 b1 06 3d 4f 1f 2e 3e
       0.0061125024 0.15222487 0.032883886 0.17004131
000180 6f cb a0 3e fc 1d 12 3e 07 83 02 3e 7a 20 96 bd
       0.31405208 0.1426925 0.12745295 -0.07330413
000190 73 b5 dc 3d b3 48 e6 bd b3 17 5c 3d e4 0b bf 3a
       0.10776796 -0.11244335 0.05373354 0.0014575687
0001a0 ee 79 34 3e 6c be ec 3d 9c 8f e2 3d 07 d4 c7 3d
       0.17624637 0.115597576 0.110625476 0.09757238
0001b0 2d 2a 09 3e 80 83 43 bd a9 b3 d6 3d a3 7c ac bd
       0.13394995 -0.04773283 0.10483486 -0.0842221
0001c0 76 8a 85 3d c9 62 ea 3d 8c a7 4b bc 32 33 12 3e
       0.0652055 0.11444623 -0.012430083 0.14277342
0001d0 0e 5e fb 3d 40 46 d2 bc d1 7c 70 3d 4d f8 3b 3d
       0.12273799 -0.025668263 0.058712784 0.045891095
0001e0 6c 8c c2 bd 3f 03 ec 3a 09 d2 33 3e d2 63 2d bd
       -0.094994396 0.0018006339 0.17560591 -0.042331524
0001f0 c1 a8 2a bd f3 3b b7 bc e0 f4 47 3c 1e 45 9a 3b
       -0.041664843 -0.022367453 0.012204379 0.0047079464
000200 94 90 8a 3e 74 30 d8 3d 2f 38 ac 3e c9 5c a9 3e
       0.2706343 0.10556117 0.33636615 0.33078602
000210 8d 5b 80 3e fb 31 09 bd d7 60 d3 3d c2 93 5f bd
       0.25069848 -0.03349493 0.10321205 -0.054584272
000220 60 39 93 3d 5b f8 c3 3d ec d0 f0 bd 2c 38 c0 3d
       0.07188678 0.095688544 -0.11758599 0.09385714
000230 79 34 21 3e 05 5b af bd 48 8a a9 bd 56 11 c0 3d
       0.15742673 -0.085622825 -0.08278328 0.093783066
000240 72 27 8d 3e 1b 3c 41 3e 64 07 f9 bc ad 28 49 3c
       0.27569157 0.18870585 -0.030399032 0.012277764
000250 9a b6 48 3d 5f e6 22 3e 7e b1 21 be 6a a1 15 3c
       0.049002267 0.15908192 -0.15790364 0.009132722
000260 5b 38 cd 3c a5 98 e8 bc 63 0c 57 3e 8c d5 a0 bc
       0.025051286 -0.0283931 0.21000819 -0.019633077
000270 72 2c 2f 3e b6 31 eb 3d cd 7a ad bc 78 59 6a bd
       0.17106798 0.11484091 -0.02117672 -0.05721423
000280 28 8c ef 3c 92 08 22 3c b1 b6 66 3e c4 66 b6 3d
       0.029241636 0.009889739 0.22530629 0.0890632
000290 c0 bc a8 bc 9c a9 7f be 1c 5b a2 3d 1d 2c 93 3b
       -0.020597816 -0.24967045 0.07927534 0.0044913427
0002a0 ba e7 a1 3d d5 f9 10 3e a7 13 19 3e ad 59 42 3e
       0.079055265 0.14157803 0.14948903 0.18979521
0002b0 98 a0 40 3d 38 fb ef bd a8 1b 0b 3e 03 42 cb 3d
       0.047028154 -0.11717838 0.13584769 0.099247
0002c0 ae db af bc ae 81 71 3c 85 c5 ca bd fa 80 81 3e
       -0.021467056 0.014740391 -0.09900955 0.25293714
0002d0 32 85 2e ba 7e 55 31 3a 23 fe 8c 3d b1 c1 60 ba
       -0.0006657421 0.00067647535 0.0688441 -0.0008573784
0002e0 dc 74 18 be 18 d4 ae bc cd 06 89 be 99 c1 be bd
       -0.14888328 -0.021341369 -0.26763 -0.093142696
0002f0 94 ee a7 bc 0e 5d 03 3e 3b fe 2c be 75 6f 8c bd
       -0.020499505 0.12828466 -0.16893856 -0.06857196
000300 1e 62 2e be af 84 fc 3d 6c 9b 57 bd f7 39 9b bc
       -0.17029616 0.12329995 -0.052638456 -0.018948538
000310 43 1e 4b 3d a8 0c 50 3d ed e0 23 bd c6 cc 6e bd
       0.049589407 0.05079332 -0.040009428 -0.058300756
000320 3a af 94 3e 31 f1 4b 3e 57 2e eb 3e c4 63 88 3d
       0.29039937 0.19916226 0.45933792 0.06659654
000330 5b d4 f8 3d 90 0f 2f 3c 17 76 bb 3c 96 c7 35 3d
       0.121498786 0.010684863 0.022883458 0.044379793
000340 6b 7d d3 3d f1 4f 7a 3e 1a 24 a2 3d 3a 4c 29 3e
       0.10326656 0.24444558 0.07917042 0.16532984
000350 07 38 94 3d 8e 32 24 3e 69 ee 23 be 33 e8 12 3d
       0.07237249 0.1603491 -0.16008915 0.035865974
000360 2c aa d3 3d 52 f4 73 be dc 54 54 3e c9 ee 6e 3d
       0.10335192 -0.2382367 0.20735496 0.058333192
000370 58 2e 35 3e 99 3b f5 3c 6e 17 22 be da 5c f9 3d
       0.1769346 0.029935645 -0.1582925 0.12175913
000380 93 79 b1 3e 96 11 c6 3d b2 14 6b 3d e1 4e 61 3c
       0.34663066 0.09671323 0.057392783 0.013751716
000390 57 4e 0a be a0 ea b8 bd 08 a6 81 3e 86 7f aa 3c
       -0.13506447 -0.09029126 0.25321984 0.020812761
0003a0 cb 8e 1f be da f3 35 3e c3 89 1d 3e 8e 69 71 3c
       -0.15581815 0.17768803 0.15384583 0.014734639
0003b0 0b c5 b7 3c e5 9b 3c be 88 47 cf 3d 3c 11 5e 3d
       0.022432825 -0.18418844 0.101210654 0.054215655
0003c0 5e 3b 1d 3e d9 6b 19 3c 96 6f 44 3e 09 fd 3b 3e
       0.15354678 0.009364092 0.19183192 0.18358244
0003d0 36 95 88 bd c5 76 14 3d 2f 01 b7 3d 66 36 93 3e
       -0.06669085 0.03624608 0.08935773 0.2875244
0003e0 7c ee 32 be 2a be 78 be 64 7a 1a be 2d 13 0d be
       -0.17473787 -0.24291292 -0.15085751 -0.13776846
0003f0 02 b1 d8 bc 1a b9 5b 3d ed 74 0e be de 34 d3 3c
       -0.026451591 0.053643323 -0.13911791 0.025782045

fc3.bias f4 [4]
000000 76 f1 7d 3e 7e a2 3b 3e ce c4 ad 3d 16 6c b5 3d
       0.24799141 0.18323705 0.08484803 0.088585064
