model_weights_targetnetwork_er.pth (torch_old, 28405 bytes, 6 tensors)

fc1.weight f4 [64, 37]
-0.13878 0.026183084 0.04107225 -0.19020861 -0.20826164 -0.16551067 0.049703117 0.13833658
0.11196002 0.16820754 -0.04805476 -0.06271015 -0.12047795 -0.19477376 0.068964854 -0.040244017
0.035387047 0.07476082 -0.040791675 -0.011784353 0.0826119 0.106122814 -0.07907206 0.054561578
-0.13529742 -0.07431566 -0.02904024 0.04914924 0.019867606 -0.0815199 0.011193462 -0.07372244
-0.08155891 -0.10686579 -0.45719686 -0.26067132 -0.025265219 0.26555884 0.08541454 0.15185124
0.103832774 -0.070210226 0.24017572 -0.0522844 -0.12639128 -0.28856066 -0.7556786 0.10773136
0.076674946 0.1403329 0.14117755 0.14928047 0.2002644 0.078391634 0.14337088 0.04779912
-0.018943463 -0.074526735 -0.0025815726 0.033158965 0.10602116 0.23022376 0.047052223 0.07147368
0.097602755 0.1424616 0.093096465 0.11252507 0.19292706 0.18285607 0.142487 0.115628295
-0.035070255 0.05146254 0.05221192 0.13971369 0.058406346 0.046263114 0.06671138 -0.613053
-0.04988127 0.4475665 -0.028717604 -0.9666669 0.05929419 -0.04398503 0.049231578 -0.07201709
-0.16228855 -0.020960324 0.11530816 0.11268435 0.07631322 0.0160513 -0.01226824 0.018331945
-0.018913737 0.023517126 -0.10882002 0.011875285 0.14615262 0.120739125 0.0024261607 -0.1977383
-0.076823466 0.027258012 -0.073959775 -0.16905315 -0.04192055 0.0016616323 0.01167043 0.15909165
0.11544396 0.017303128 -0.06341778 -0.09750851 -0.21871646 0.027383547 0.04761512 0.16795664
0.14841276 0.021553237 -0.04970996 0.0064175585 -0.16032904 -0.34701058 -0.16695364 -0.010212199
0.047454968 -0.052692406 -0.0759352 0.23629107 -0.42412388 -0.17026854 -0.16898607 -0.9385409
-0.019933652 0.080817185 0.05043299 0.12492376 0.25294858 0.002848507 0.24937215 0.027442504
-0.21444207 0.038091633 0.046633046 0.0016906674 -0.10532973 -0.08818724 -0.064390644 -0.09316843
-0.025134606 0.31452793 -0.5530522 -0.42760304 -0.5706721 -1.7352939 0.04111485 0.046226844
-0.018020114 -0.041096773 -0.07291483 -0.06471229 -0.05260201 0.0016669441 0.06793117 0.123245955
-0.005151676 0.025480097 0.06244077 0.038246866 0.12425006 0.03631355 0.09046982 0.15689479
0.07703116 0.12703489 0.07187548 0.042069364 0.1315476 0.22013314 0.2656684 -0.029593246
-0.0092605995 0.07610956 -0.026263405 -0.005427707 -0.012105137 0.13719872 0.37061217 -0.2912586
-0.49827495 -0.35742274 -1.315073 -0.04675405 -0.047364615 0.061140396 0.011747915 -0.02280424
0.03164754 0.088898525 -0.025173882 -0.007079086 -0.12697706 0.20059939 0.012901904 0.06772207
0.13904792 0.009145401 0.03549233 -0.003356173 0.058450613 0.11519677 0.0881536 0.06042921
-0.07896162 0.040227853 0.167121 0.037629772 -0.006544078 0.010319312 -0.21157472 0.05591075
-0.27651078 0.08031014 -0.1121793 -0.072026856 -0.2219483 0.039683223 -0.42602107 0.17102435
-0.1645659 0.10818655 -0.16802529 0.15024015 0.089988425 -0.21172875 -0.24328372 -0.06261887
0.18352568 0.17317317 -0.10531736 -0.09933729 6.162098e-05 -0.17820795 0.07826299 -0.45369625
-0.28824648 0.016217453 -0.13894595 -0.1446617 0.08062792 -0.13610984 -0.07405562 -0.24916951
00000000: 581c 0ebe e87d d63c 603b 283d 0cc6 42be
00000010: 8a42 55be a17b 29be 7f95 4b3d 1ba8 0d3e
00000020: 4c4b e53d 993e 2c3e 11d5 44bd 2e6e 80bd
00000030: 25bd f6bd c672 47be 723d 8d3d e9d6 24bd
00000040: 02f2 103d 331c 993d 2c15 27bd 2913 41bc
00000050: 6e30 a93d eb56 d93d 88f0 a1bd f67b 5f3d
00000060: 688b 0abe cf32 98bd cce5 edbc b750 493d
00000070: 64c1 a23c e8f3 a6bd c864 373c cafb 96bd
00000080: 5c08 a7bd 74dc dabd b515 eabe b676 85be
00000090: 01f9 cebc 54f7 873e d1ed ae3d e47e 1b3e
000000a0: 47a6 d43d 61ca 8fbd a0f0 753e 2b28 56bd
000000b0: b76c 01be 39be 93be 2774 41bf 42a2 dc3d
000000c0: c107 9d3d 6eb3 0f3e d990 103e fbdc 183e
000000d0: 1c12 4d3e cb8b a03d d1cf 123e 03c9 433d
000000e0: 522f 9bbc 79a1 98bd 9a2f 29bb b2d1 073d
000000f0: 9f21 d93d c7bf 6b3e d5b9 403d cb60 923d
00000100: f4e3 c73d 74e1 113e 5ca9 be3d 8b73 e63d
00000110: ac8e 453e 9f3e 3b3e 1de8 113e 87ce ec3d
00000120: d4a5 0fbd 62ca 523d 2bdc 553d 1b11 0f3e
00000130: 7e3b 6f3d 647e 3d3d fa9f 883d 0bf1 1cbf
00000140: 4d50 4cbd 7027 e53e 2e41 ebbc 7b77 77bf
00000150: 77de 723d a629 34bd 0da7 493d b27d 93bd
00000160: f82e 26be fcb4 abbc af26 ec3d 0dc7 e63d
00000170: 1b4a 9c3d 047e 833c ba00 49bc e02c 963c
00000180: fbf0 9abc fda6 c03c 08dd debd 8e90 423c
00000190: 08a9 153e 1346 f73d 3900 1f3b e97b 4abe
000001a0: 9f55 9dbd 324c df3c 3978 97bd 451c 2dbe
000001b0: e2b4 2bbd 21cb d93a 5535 3f3c ece8 223e
000001c0: e26d ec3d 4abf 8d3c 2ee1 81bd 8bb2 c7bd
000001d0: 35f7 5fbe 7653 e03c 1208 433d d3fc 2b3e
000001e0: 84f9 173e 6a90 b03c ac9c 4bbd 624a d23b
000001f0: 4c2d 24be 5fab b1be e5f5 2abe 1151 27bc
00000200: 2460 423d fed3 57bd ea83 9bbd 49f6 713e
00000210: c426 d9be e05a 2ebe af0a 2dbe 3744 70bf
00000220: e64b a3bc 7b83 a53d d392 4e3d 07d8 ff3d
00000230: 7a82 813e 04ae 3a3b 6a5b 7f3e 1acf e03c
00000240: b496 5bbe f905 1c3d 4b02 3f3d 6299 dd3a
00000250: 1db7 d7bd 839b b4bd 3edf 83bd 17cf bebd
00000260: 17e7 cdbc ce09 a13e d494 0dbf c9ee dabe
00000270: 9117 12bf 1c1e debf 0c68 283d 5c58 3d3d
00000280: eb9e 93bc 1755 28bd 5f54 95bd e187 84bd
00000290: 3575 57bd 5d7d da3a 7f1f 8b3d 6068 fc3d
000002a0: 64cf a8bb a3bb d03c e5c1 7f3d bfa8 1c3d
000002b0: d176 fe3d 84bd 143d 3e48 b93d 07a9 203e
000002c0: 83c2 9d3d 6f15 023e 7433 933d ed50 2c3d
000002d0: 6ab4 063e 956a 613e b005 883e 896d f2bc
000002e0: c5b9 17bc 54df 9b3d 5a26 d7bc e8da b1bb
000002f0: a054 46bc d27d 0c3e e1c0 bd3e d91f 95be
00000300: e51d ffbe 1d00 b7be 5054 a8bf 2d81 3fbd
00000310: 6601 42bd 5a6e 7a3d 547a 403c f5cf babc
00000320: daa0 013d 6e10 b63d 7539 cebc adf7 e7bb
00000330: 4606 02be ed69 4d3e 8262 533c deb1 8a3d
00000340: 9462 0e3e 98d6 153c 6860 113d 3df3 5bbb
00000350: e969 6f3d 49ec eb3d e089 b43d 9f84 773d
00000360: a1b6 a1bd f6c5 243d c421 2b3e ad21 1a3d
00000370: b46f d6bb 5512 293c 0ba7 58be ac02 653d
00000380: d292 8dbe a579 a43d 43be e5bd d182 93bd
00000390: 6a46 63be e08a 223d 6f1f dabe 0221 2f3e
000003a0: f783 28be e990 dd3d d20e 2cbe 8ed8 193e
000003b0: da4b b83d 6ccf 58be 5e1f 79be 523e 80bd
000003c0: 28ee 3b3e 4f54 313e a1b0 d7bd 5971 cbbd
000003d0: 833a 8138 257c 36be 5948 a03d e04a e8be
000003e0: 0b95 93be 77da 843c d947 0ebe 3222 14be
000003f0: 4020 a53d 6160 0bbe 79aa 97bd 4b26 7fbe

fc1.bias f4 [64]
0.07260048 0.12316095 -0.0856943 -0.08067391 0.23213252 0.023799347 -0.16415009 0.07017956
-0.022787586 -0.13106179 0.13305031 0.08092787 0.14268833 -0.01561333 -0.05028384 -0.14482898
-0.039322447 -0.10121734 -0.012205765 -0.22041158 -0.09538614 -0.0460366 -0.04100844 -0.05947659
-0.1891974 0.21491963 -0.09635171 -0.27419883 0.12186956 0.26039118 -0.181857 -0.2730696
0.11898397 -0.03403473 -0.0500991 -0.009794192 -0.10718313 0.046409726 -0.039158087 -0.19304304
-0.29276714 -0.030104425 -0.17845915 0.16435476 -0.041451056 -0.07421896 -0.0034430942 -0.13942845
-0.15842503 -0.055360064 -0.13718785 0.10989464 -0.16569196 -0.14423318 -0.25487024 -0.15958455
-0.0061866357 -0.09196976 -0.14466608 -0.12680638 0.014161383 0.0856155 0.035240468 0.06238665
00000000: 8faf 943d cf3b fc3d 7e80 afbd 5d38 a5bd
00000010: 26b4 6d3e d9f6 c23c f616 28be 4dba 8f3d
00000020: 08ad babc 1035 06be 573e 083e 83bd a53d
00000030: e41c 123e 0dcf 7fbc 6ef6 4dbd 0c4e 14be
00000040: 9310 21bd 094b cfbd b0fa 47bc 93b3 61be
00000050: cf59 c3bd e090 3cbd 77f8 27bd ba9d 73bd
00000060: f7bc 41be e413 5c3e 0c54 c5bd ca63 8cbe
00000070: bf96 f93d fe51 853e b938 3abe c7cf 8bbe
00000080: dead f33d 0068 0bbd b734 4dbd d277 20bc
00000090: d482 dbbd 2018 3e3d 3b64 20bd 13ad 45be
000000a0: 93e5 95be 8e9d f6bc ffbd 36be 9d4c 283e
000000b0: 95c8 29bd 1c00 98bd 89a5 61bb 55c6 0ebe
000000c0: 2c3a 22be 3cc1 62bd f97a 0cbe 7110 e13d
000000d0: 27ab 29be ddb1 13be 5a7e 82be 226a 23be
000000e0: 43b9 cabb a45a bcbd 5823 14be 88d9 01be
000000f0: 2505 683c 2e57 af3d 4f58 103d 2589 7f3d

fc2.weight f4 [64, 64]
0.038297884 -0.013553452 0.09079596 0.031457677 -0.15483062 -0.0814593 0.12796994 0.1360023
0.16688764 -0.06459442 0.02290843 -0.27217412 -0.7158476 0.16596907 0.015968472 0.087754644
-0.19413891 -0.13270521 0.17300732 0.09071126 0.05406135 0.1538668 0.18135414 -0.15518431
-0.13718367 0.036863547 0.15499477 0.09919509 0.006734475 0.0072180326 0.041459598 0.05350232
0.059268393 0.4926047 -0.016800191 0.114546314 -0.02579473 0.16487305 0.68025225 -0.092970304
0.060333617 -0.16079016 0.09052917 -0.039427307 0.12440148 -0.08138009 -0.24938704 -0.114315145
0.09190209 -0.15789661 -0.28279778 -0.1462099 -0.12310188 -0.017451419 -0.05423969 -0.036181986
0.07891973 -0.15924641 -0.43958008 -0.0013780349 0.004540709 -0.08475401 -0.25101003 -0.36545324
0.025156321 0.108218744 -0.29122892 0.116748795 0.22714372 0.08106297 0.045269106 -0.338827
-0.104664035 -0.09640908 -0.064563386 0.08554846 -0.26378143 0.088053375 -0.24971557 -0.05602934
-0.15992059 0.06312969 0.053612974 0.04601173 -0.012865249 -0.02056207 0.01438897 0.27930385
-0.09877723 0.09809809 -0.25104472 -0.036907997 0.0653631 0.040425252 0.043654703 -0.19870584
0.0379662 -0.08249432 0.04855304 -0.061026096 0.16023907 0.09848928 0.2789569 -0.18907897
-0.1686399 0.07166329 -0.03324489 -0.11427948 -0.10268961 -0.12395525 -0.22523244 -0.11862985
-0.020364683 0.037539024 -0.10735592 0.12463118 -0.3067001 -0.036622077 -0.1297267 0.072412476
-0.02687699 0.040954605 0.06406102 -0.0732904 -0.1631527 0.10003897 -0.12873855 -0.13557583
0.059429597 -0.11731613 0.049419876 0.1225748 -0.3467987 -0.074024186 -0.06783506 -0.33477867
0.1888059 -0.10894795 0.08495304 -0.11602831 0.60534203 0.15935914 0.10877882 0.0036553352
-0.12443786 -0.2837074 0.0048665036 0.028742144 -0.09763928 0.046423644 -0.29953697 -0.13136247
-0.12579419 0.03204343 0.07622521 -0.03364966 0.08554391 0.1528924 0.008550469 0.00419
-0.03390139 -0.082144305 -0.10984843 0.12747753 0.17635527 -0.018132025 0.39453393 -0.03111468
0.14075749 -0.32601526 -0.020065993 -0.04104823 0.008941321 0.021973297 0.054468837 -0.387122
0.03785756 -0.1451681 0.161576 -0.1974061 -0.2867716 0.2807163 -0.22465011 -0.101547465
-0.07375078 -0.3394626 -0.08867489 0.14147407 -0.026562732 -0.19393238 -0.015312392 -0.28616562
0.012626936 -0.06068273 0.051256143 0.07378376 0.029970868 0.04378795 -0.15856282 0.26026595
-0.19556288 -0.030452983 0.016296463 -0.061954882 -0.7454062 0.3087701 0.17465328 0.004258427
-0.06693847 -0.062540255 -0.020764748 -0.09616152 -0.146264 0.01470492 0.03866819 0.065808356
-0.045140803 0.07196688 0.078987435 0.18421462 0.07837079 -0.16292022 0.062102675 0.09302203
0.03773936 0.44181246 0.10998795 0.17684737 -0.18436322 0.15987739 0.659849 0.04875349
0.030382799 0.05163045 -0.07131028 0.16665454 -0.013316028 0.1346635 0.089011416 0.18840748
0.19995113 0.1326869 -0.46114612 0.017347097 0.13136293 -0.12777825 0.08520744 -0.07338973
-0.024257818 -0.16357839 -0.089558795 0.12318568 -0.01381711 0.015067262 -0.07845054 -0.16060038
00000000: 3ede 1c3d 4c0f 5ebc 3bf3 b93d c4d9 003d
00000010: eb8b 1ebe 22d4 a6bd 8d0a 033e 3044 0b3e
00000020: 98e4 2a3e 144a 84bd 76aa bb3c 685a 8bbe
00000030: ca41 37bf ccf3 293e 50d0 823c b5b8 b33d
00000040: 5acc 46be e0e3 07be d528 313e d3c6 b93d
00000050: 6f6f 5d3d 428f 1d3e e6b4 393e a3e8 1ebe
00000060: e079 0cbe 3bfe 163d f3b6 1e3e cc26 cb3d
00000070: dfac dc3b 3f85 ec3b 8ad1 293d 4025 5b3d
00000080: 6ac3 723d af36 fc3e 8ea0 89bc 4297 ea3d
00000090: 784f d3bc 7bd4 283e 0325 2e3f 3767 bebd
000000a0: 6220 773d 2da6 24be 5c67 b93d 877e 21bd
000000b0: 34c6 fe3d 9baa a6bd 515f 7fbe 0f1e eabd
000000c0: 2a37 bc3d a6af 21be dfca 90be 0cb8 15be
000000d0: d71c fcbd 47f6 8ebc 702a 5ebd 9033 14bd
000000e0: aba0 a13d 7e11 23be a410 e1be 2e9f b4ba
000000f0: 3aca 943b 8393 adbd 6384 80be b01c bbbe
00000100: a114 ce3c caa1 dd3d f51b 95be fe19 ef3d
00000110: 5d98 683e 5804 a63d 196c 393d bc7a adbe
00000120: 195a d6bd 2072 c5bd cf39 84bd 0834 af3d
00000130: 5c0e 87be 5455 b43d 70b5 7fbe 057f 65bd
00000140: 39c2 23be 244a 813d 4799 5b3d cc76 3c3d
00000150: c4c8 52bc c971 a8bc b7bf 6b3c ea00 8f3e
00000160: b74b cabd a7e7 c83d ef88 80be d72c 17bd
00000170: 17dd 853d f394 253d 46cf 323d 8b79 4bbe
00000180: 7282 1b3d c8f2 a8bd 8ddf 463d 80f6 79bd
00000190: b615 243e bfb4 c93d 70d3 8e3e eb9d 41be
000001a0: f0af 2cbe 34c4 923d cb2b 08bd 5c0b eabd
000001b0: ee4e d2bd 40dc fdbd 55a3 66be 35f4 f2bd
000001c0: d6d3 a6bc 85c2 193d 6cdd dbbd a23e ff3d
000001d0: cc07 9dbe 0801 16bd 13d7 04be fe4c 943d
000001e0: 222d dcbc 04c0 273d 6d32 833d 4719 96bd
000001f0: 8011 27be 3be1 cc3d 0ad4 03be 64d4 0abe
00000200: 736c 733d 7043 f0bd 7f6c 4a3d 7f08 fb3d
00000210: 998f b1be fe99 97bd 1ced 8abd 1c68 abbe
00000220: 5556 413e 1a20 dfbd dcfb ad3d 40a0 edbd
00000230: b2f7 1a3f 0b2f 233e 6ec7 de3d 598e 6f3b
00000240: 47d9 febd 1942 91be 3177 9f3b a574 eb3c
00000250: 1af7 c7bd b826 3e3d e95c 99be e283 06be
00000260: 31d0 00be f93f 033d f71b 9c3d 3ad4 09bd
00000270: a531 af3d d38f 1c3e 4417 0c3c 444c 893b
00000280: 2fdc 0abd 463b a8bd 37f8 e0bd 7889 023e
00000290: 7a96 343e 9d89 94bc 5a00 ca3e 37e4 febc
000002a0: bb22 103e 79eb a6be 7061 a4bc 3022 28bd
000002b0: 9e7e 123c 5801 b43c b71a 5f3d db34 c6be
000002c0: 8710 1b3d f2a6 14be 2e74 253e d324 4abe
000002d0: bad3 92be 0cba 8f3e ae0a 66be 1ef8 cfbd
000002e0: a60a 97bd 0bce adbe 2e9b b5bd 94de 103e
000002f0: 169a d9bc 3696 46be d4e0 7abc 4d84 92be
00000300: 35e1 4e3c 748e 78bd f6f1 513d f11b 973d
00000310: 7785 f53c fe5a 333d 4b5e 22be 9441 853e
00000320: a341 48be 8978 f9bc 2980 853c 67c4 7dbd
00000330: f1d2 3ebf 1d17 9e3e 4fd8 323e 468a 8b3b
00000340: 0917 89bd 1b15 80bd d51a aabc 55f0 c4bd
00000350: 3bc6 15be e8ec 703c 8962 1e3d 88c6 863d
00000360: 90e5 38bd 5f63 933d 2ac4 a13d c2a2 3c3e
00000370: dd80 a03d 8fd4 26be 605f 7e3d 5682 be3d
00000380: 9694 1a3d 3e35 e23e 5d41 e13d 7a17 353e
00000390: b6c9 3cbe e6b6 233e ddeb 283f bdb1 473d
000003a0: 59e5 f83c 737a 533d 200b 92bd 7da7 2a3e
000003b0: 782b 5abc 3be5 093e 9e4b b63d e4ed 403e
000003c0: fdbf 4c3e 13df 073e 581b ecbe 801b 8e3c
000003d0: 0184 063e 4dd8 02be 3d81 ae3d 5b4d 96bd
000003e0: 55b8 c6bc 1881 27be 9a6a b7bd c648 fc3d
000003f0: 2961 62bc addc 763c adaa a0bd 6d74 24be

fc2.bias f4 [64]
-0.006907882 0.08572903 0.14009416 0.2554097 0.2824609 -0.27166244 -0.0999171 -0.083808646
0.05890892 0.481243 -0.023812247 0.27896136 0.38333237 -0.046310984 -0.08191381 0.07220879
0.18453638 0.06109785 -0.11440338 0.2885951 0.3738744 0.5585168 -0.12623893 -0.041947786
-0.10783 -0.24966045 0.26075676 -0.09888528 0.13331757 0.29499647 0.055246953 0.117722005
0.055783633 0.30906108 0.17694764 -0.08666989 -0.086852305 -0.078804225 0.19733132 -0.09505166
-0.08212509 0.55957234 0.33277306 0.08904669 0.1280183 -0.08518437 0.35741904 -0.073424675
0.016510155 -0.004870872 -0.0069200117 0.46716645 0.044402417 -0.016739773 0.17195281 -0.017715279
-0.11855161 -0.113060854 -0.07518811 -0.1558998 -0.008766357 0.40758905 0.10349213 -0.1446602
00000000: 845b e2bb b492 af3d d874 0f3e 0fc5 823e
00000010: b79e 903e 5717 8bbe 56a1 ccbd dea3 abbd
00000020: 7b4a 713d 7c65 f63e e711 c3bc 06d4 8e3e
00000030: 2444 c43e 96b0 3dbd 6dc2 a7bd 34e2 933d
00000040: 1bf7 3c3e bd41 7a3d 524c eabd bdc2 933e
00000050: 776c bf3e f5fa 0e3f c744 01be 71d1 2bbd
00000060: fad5 dcbd fda6 7fbe e981 853e 5e84 cabd
00000070: 6784 083e c709 973e a14a 623d 3c18 f13d
00000080: 617d 643d 413d 9e3e c331 353e fc7f b1bd
00000090: 9fdf b1bd 1c64 a1bd 3911 4a3e 72aa c2bd
000000a0: 3331 a8bd 2240 0f3f 3b61 aa3e 1c5e b63d
000000b0: 3b17 033e 2575 aebd a1ff b63e ad5f 96bd
000000c0: 4e40 873c d69b 9fbb 44c1 e2bb 7130 ef3e
000000d0: 4fdf 353d d921 89bc 6614 303e a21f 91bc
000000e0: 30cb f2bd 738c e7bd 39fc 99bd 32a4 1fbe
000000f0: c4a0 0fbc 83af d03e aff3 d33d ce21 14be

fc3.weight f4 [4, 64]
0.2772415 0.089671075 0.30968982 0.1501085 0.1725027 -0.113323964 0.1284468 -0.1411573
0.023261422 0.1219669 0.10337442 0.22802679 0.09505244 -0.032468516 -0.028456463 0.019574812
0.33345464 0.11620728 -0.013491174 0.17091648 0.10414692 0.16886911 -0.06551137 -0.26982063
-0.10231258 -0.13373196 0.20224914 -0.06361359 0.27917176 0.13533661 -0.60659724 0.20649663
0.52303255 0.16508709 0.07248612 -0.0055475463 0.09059438 -0.32219112 0.066760115 -0.016393535
0.04479609 0.16831653 0.26416424 0.0625017 0.194577 -0.2061949 0.16700023 0.05787254
-0.00014922512 0.14531234 -0.008758491 0.22698987 0.11814541 -0.080881014 0.041510016 0.390745
-0.23471956 -0.23850231 -0.33356562 -0.2081439 0.01764257 0.19094458 0.04344927 -0.03190003
0.12699473 0.09591767 0.24087967 0.11349053 0.14428908 -0.016061021 0.021019103 -0.108067006
0.043983836 0.16562821 0.18915185 0.14655113 0.08619672 -0.04999405 -0.058748703 0.10695289
0.27051005 0.23200125 -0.0842416 0.19379522 0.1775485 0.18214822 -0.017042905 0.13400596
-0.009139192 -0.21523908 0.21279004 0.033861503 0.14439899 0.1318405 0.091436416 0.20154189
0.41523957 0.18436769 0.14540347 -0.07330413 0.050743047 -0.08776643 0.119582035 0.0014575687
0.18199736 0.17697896 0.18476008 0.10883398 0.18660705 -0.07843438 0.15531696 -0.15670942
0.11634379 0.13727692 0.12441398 0.17676748 0.16667299 0.10134801 0.04641116 0.27592504
-0.10620742 0.04420332 -0.10073415 -0.054076906 -0.11753816 0.02647209 0.06751598 0.061042048
0.41958833 0.08441987 0.37234253 0.3950346 0.2872763 -0.03299513 0.10321205 -0.03196698
0.08325628 0.13847981 0.0046625966 0.09510422 0.19281402 -0.030897446 -0.08278328 0.21501976
0.25455377 0.23659205 -0.030399032 0.059887752 0.07302735 0.20781755 -0.2067813 0.06034108
0.030055622 -0.050077926 0.28248408 -0.019633077 0.24156724 0.112247385 -0.035764996 -0.05259024
0.2560875 0.06500214 0.24054341 0.0890632 0.03214463 -0.31857488 0.050018776 0.0044913427
0.22613111 0.18789694 0.1755976 0.20591858 0.17711799 -0.1926768 0.17482747 0.16997078
0.011638975 0.025305886 -0.03919272 0.32604256 -0.07779389 0.17454763 0.099869266 0.11046065
-0.12770548 -0.051389974 -0.5230554 -0.11052263 -0.06902986 0.16988473 -0.13513148 -0.05161866
-0.13823868 0.13730675 0.006243501 0.048688058 0.06104392 0.035030518 -0.040009428 0.021827202
0.23834883 0.24499749 0.5189441 0.09735369 0.16584016 0.15045618 0.007010069 0.15365373
0.17324285 0.15278731 0.06331491 0.20208007 0.11762921 0.21895868 -0.060526423 0.04446544
0.058827315 -0.534802 0.25933972 0.058333192 0.2059843 0.11256357 -0.23929732 0.12710701
0.37749568 0.15815693 0.08739291 0.013751716 -0.19532716 -0.16953205 0.2868117 0.020812761
-0.12851098 0.23083545 0.19033122 -0.005126133 0.2171538 -0.2289061 0.14433728 -0.029839028
0.11495126 0.025173428 0.16890761 0.2289979 0.010894613 0.27777672 0.13274063 0.35049167
-0.22809003 -0.21807438 -0.13233696 -0.055523995 -0.115113094 0.106329165 -0.17251888 -0.14595447
00000000: 99f2 8d3e 78a5 b73d aa8f 9e3e 0bb6 193e
00000010: 8ca4 303e 6516 e8bd 8f87 033e 8a8b 10be
00000020: bd8e be3c c8c9 f93d f8b5 d33d db7f 693e
00000030: dbaa c23d b5fd 04bd 871d e9bc 5b5b a03c
00000040: 91ba aa3e 15fe ed3d 160a 5dbc bb04 2f3e
00000050: fb4a d53d 06ec 2c3e d32a 86bd ee25 8abe
00000060: 4289 d1bd 08f1 08be 661a 4f3e d847 82bd
00000070: 9aef 8e3e ae95 0a3e f549 1bbf da73 533e
00000080: 76e5 053f 970c 293e 9a73 943d 31c8 b5bb
00000090: 8c89 b93d 3cf6 a4be 87b9 883d bc4b 86bc
000000a0: 1b7c 373d 2b5b 2c3e 8940 873e e400 803d
000000b0: 313f 473e c224 53be 1c02 2b3e c20b 6d3d
000000c0: 5079 1cb9 c2cc 143e c67f 0fbc 0870 683e
000000d0: 39f6 f13d f2a4 a5bd 6806 2a3d bb0f c83e
000000e0: 535a 70be f339 74be 1dc9 aabe ad23 55be
000000f0: 2787 903c fa86 433e ddf7 313d 9ba9 02bd
00000100: e80a 023e 7c70 c43d 29a9 763e b96d e83d
00000110: 84c0 133e 6792 83bc 4130 ac3c 3c52 ddbd
00000120: 6528 343d 719a 293e 06b1 413e 8011 163e
00000130: e887 b03d 90c6 4cbd 7ba2 70bd 1e0a db3d
00000140: 4b80 8a3e bc91 6d3e dc86 acbd 4172 463e
00000150: 46cf 353e 1085 3a3e 909d 8bbc dc38 093e
00000160: 8dbc 15bc a267 5cbe a2e5 593e 5cb2 0a3d
00000170: 54dd 133e 3201 073e 0443 bb3d ff60 4e3e
00000180: 489a d43e e2ca 3c3e a6e4 143e 7a20 96bd
00000190: f1d7 4f3d e3be b3bd 6de7 f43d e40b bf3a
000001a0: 845d 3a3e f939 353e bf31 3d3e 5ae4 de3d
000001b0: eb15 3f3e 34a2 a0bd 690b 1f3e 6f78 20be
000001c0: a745 ee3d 5292 0c3e c2cc fe3d 8902 353e
000001d0: 53ac 2a3e 8c8f cf3d a119 3e3d 0c46 8d3e
000001e0: 4783 d9bd 8a0e 353d b54d cebd bf7f 5dbd
000001f0: d9b7 f0bd ffdb d83c d145 8a3d 3a07 7a3d
00000200: 48d4 d63e 53e4 ac3d aea3 be3e fa41 ca3e
00000210: e115 933e e725 07bd d760 d33d cfef 02bd
00000220: 4582 aa3d a7cd 0d3e b2c8 983b 00c6 c23d
00000230: 0a71 453e a41c fdbc 488a a9bd 242e 5c3e
00000240: df54 823e 3045 723e 6407 f9bc dc4c 753d
00000250: 5d8f 953d 20ce 543e 7abe 53be 3528 773d
00000260: 3537 f63c 831e 4dbd c1a1 903e 8cd5 a0bc
00000270: 675d 773e f5e1 e53d 517e 12bd dd68 57bd
00000280: e71d 833e d81f 853d 0351 763e c466 b63d
00000290: 16aa 033d 3f1c a3be 7de0 4c3d 1d2c 933b
000002a0: ea8e 673e 0e68 403e dbcf 333e 52dc 523e
000002b0: 6b5e 353e 114d 45be f905 333e d20c 2e3e
000002c0: 66b1 3e3c 4a4e cf3c 8c88 20bd 0def a63e
000002d0: 6752 9fbd 9dbc 323e 4288 cc3d 3139 e23d
000002e0: 3ac5 02be 4b7e 52bd f5e6 05bf b059 e2bd
000002f0: 875f 8dbd 43f6 2d3e e85f 0abe 176e 53bd
00000300: 718e 0dbe 249a 0c3e 4896 cc3b 216d 473d
00000310: 3109 7a3d 297c 0f3d ede0 23bd f6ce b23c
00000320: b711 743e 9fe0 7a3e 85d9 043f 5f61 c73d
00000330: 01d2 293e 2f11 1a3e b9b4 e53b 6757 1d3e
00000340: 9366 313e 4774 1c3e 3fab 813d 14ee 4e3e
00000350: 95e7 f03d b436 603e 8eea 77bd 6521 363d
00000360: e9f4 703d c9e8 08bf 2dc8 843e c9ee 6e3d
00000370: 8ced 523e bb87 e63d 5b0a 75be 5728 023e
00000380: 1d47 c13e e4f3 213e 0efb b23d e14e 613c
00000390: d803 48be cf99 2dbe fcd8 923e 867f aa3c
000003a0: 6298 03be 2160 6c3e 30e6 423e 1ff9 a7bb
000003b0: 915d 5e3e 5c66 6abe 27cd 133e fa70 f4bc
000003c0: 916b eb3d 8138 ce3c 1ef6 2c3e 6d7e 6a3e
000003d0: 527f 323c c038 8e3e 29ed 073e a573 b33e
000003e0: 6f90 69be e44e 5fbe 5783 07be 216d 63bd
000003f0: 6ac0 ebbd 1bc3 d93d caa8 30be 1775 15be

fc3.bias f4 [4]
0.41280925 0.26325235 0.1773154 0.20260017
00000000: bc5b d33e 03c9 863e 2b92 353e 6b76 4f3e
