weights/DDQN_model_weights_C1250.pth (torch_old, 28405 bytes, 6 tensors)

fc1.weight f4 [64, 37]
000000 43 94 8d 3e e7 38 60 bf de b8 13 bf a4 8f 80 bd
       0.27652177 -0.87586826 -0.5770396 -0.06277397
000010 a4 ee e5 be 15 8b 12 bf 6a 0b 20 bf 26 b7 14 3f
       -0.4490863 -0.5724347 -0.62517416 0.5809196
000020 20 15 ad bf da 90 e8 bf de d9 d7 be c6 f0 24 bf
       -1.3522072 -1.8169205 -0.42158407 -0.6442989
000030 35 38 74 3e 80 2e 9b bf 71 67 ee bf f7 f7 53 be
       0.23849566 -1.2123566 -1.8625318 -0.2070006
000040 e7 73 ca be 09 49 94 bd e7 c3 5d be 68 f5 d1 bd
       -0.3954155 -0.07240493 -0.21656762 -0.10251886
000050 ae f6 41 bf 1e 74 84 3e 4b ba 40 3e 4a 78 4e bf
       -0.7576703 0.2586984 0.18821065 -0.80652297
000060 5d 03 b7 be fd b2 45 3e 30 a5 e1 3b 20 b0 38 bf
       -0.35744753 0.1930656 0.006886147 -0.72143745
000070 e2 18 e6 be 4e 5d 81 be cb 7f 08 bf e2 8d 05 bf
       -0.4494086 -0.25266498 -0.53319997 -0.5216962
000080 9e 8f f7 3e bb 57 0a bf 1a 68 c3 bf 8c d6 ec 3d
       0.4835176 -0.54040116 -1.5266144 0.11564359
000090 47 13 f3 bc 1c a6 b1 3e be 68 f6 be 2c b7 8e 3e
       -0.029672278 0.34697044 -0.48126787 0.27874124
0000a0 dd 04 27 3e f2 28 9a bf f6 c2 bb 3e 81 41 83 be
       0.16310449 -1.2043746 0.3667218 -0.25635913
0000b0 25 a7 c7 be 33 bf 99 be 15 71 a8 be 26 45 14 3e
       -0.3899471 -0.30028686 -0.32898775 0.14479503
0000c0 60 f6 ff 3d 42 d8 85 3d 03 46 3e be b9 82 05 3e
       0.12498164 0.065353885 -0.18581395 0.13038148
0000d0 05 7b 4d be ad 02 a3 3e 62 7c 09 3e cb 54 5f bd
       -0.2006646 0.3183798 0.13426355 -0.054524224
0000e0 53 cd c8 3c 65 c6 17 3e b3 e5 79 be 97 9a 8a 3c
       0.024511969 0.14821775 -0.2440403 0.016919417
0000f0 54 1e 8d be 43 5d b9 3d 5e 01 42 bc b8 73 0f 3d
       -0.275622 0.090509914 -0.011841146 0.035022467
000100 7d 03 79 bd 93 df 66 bc e3 40 0b 3d 00 61 45 be
       -0.060794342 -0.01409139 0.033997428 -0.19275284
000110 12 0f 7d 3e fb 0b c8 3c 0d 00 6c 3e a7 94 4b 3e
       0.2471278 0.024419775 0.23046894 0.19880925
000120 83 13 df 3d 30 d2 00 3b 6f 34 52 bf a0 85 a7 bf
       0.108923934 0.0019656532 -0.8211126 -1.3087654
000130 02 93 c5 3e 99 4b d2 bf 63 d9 59 bf 65 3d a1 be
       0.3858872 -1.642932 -0.8509733 -0.31492153
000140 1c 4a ad bf cf 95 29 3e e6 3b 90 bf 1a ca 87 bf
       -1.3538241 0.16561054 -1.126828 -1.0608552
000150 22 33 75 3e a2 47 f3 be 8c 85 2a bf 4e eb 7e bf
       0.23945287 -0.4751559 -0.66610026 -0.99577796
000160 18 ac 84 3e 8a b3 42 bf be 64 81 be ec c4 93 be
       0.25912547 -0.76055205 -0.25272173 -0.28861177
000170 02 91 eb be f3 9d f7 be d4 27 60 bf 79 fa ef 3e
       -0.4600907 -0.48362693 -0.8756077 0.46870783
000180 10 be c0 bf 81 07 95 bf 0a 41 fc 3d 5b e5 ae bf
       -1.5058002 -1.1642915 0.12317093 -1.3663744
000190 52 27 16 be ad 39 0a 3f 57 83 6e bf 06 74 4c 3f
       -0.14663437 0.53994256 -0.9316916 0.7986454
0001a0 ba 9e 50 3d 2e 24 1a 3a ae 7e 91 bf 46 22 96 bf
       0.050932623 0.0005880025 -1.1366785 -1.172921
0001b0 4b 8b 82 bf 9e 99 b3 bb 4d 17 f6 3d 38 e4 00 3f
       -1.0198759 -0.005480959 0.12016163 0.50348234
0001c0 43 e3 52 bf 3a d9 91 be e7 92 f6 be 70 b6 34 c0
       -0.82378024 -0.28486043 -0.48158953 -2.823635
0001d0 53 74 c9 3d 0f a0 15 3d a5 3c 52 3e b1 fe ee 3d
       0.0983664 0.036529597 0.20530947 0.11669672
0001e0 db 23 f7 3d 2a 3b df 3d 8a 21 7b 3d 1d bd 5a 3e
       0.12067386 0.108999565 0.061311282 0.21361203
0001f0 ae f0 b1 3c df cd 14 be 98 8c 7d 3d 04 5b 1a bd
       0.02172121 -0.14531659 0.06190166 -0.037684456
000200 76 7a 44 3e e1 81 81 3e 99 1a 84 3e 09 f3 ab 3b
       0.1918734 0.25294402 0.25801542 0.005247478
000210 c1 5f 33 3e ce a1 74 3d bb e1 4d 3e 1e 20 3c bc
       0.17516996 0.05972462 0.2010564 -0.011482267
000220 20 49 1a 3e 60 c1 21 3c e4 08 83 3e ba 64 40 3e
       0.15066957 0.009872764 0.2559272 0.18788424
000230 8a b6 b7 bd c3 23 5e 3e 76 14 7f 3e f8 9c 0c 3e
       -0.089703634 0.2169333 0.24910149 0.13731754
000240 93 13 ba be 90 fe c1 be 4e d7 ac bd fb b0 c4 3c
       -0.3634306 -0.37889528 -0.084395036 0.024010172
000250 57 66 bb bc 0a 5c 53 be a5 9e d4 bd 3f f3 a4 be
       -0.022875948 -0.20640579 -0.103818215 -0.32216832
000260 0c ea b3 be 78 b3 80 3d 99 6f d9 3c fc 40 b9 bc
       -0.351395 0.06284231 0.026542472 -0.022613995
000270 0f c4 c2 3d af 80 0a bf 49 99 d1 3e 8a 76 9e bf
       0.095100515 -0.54102606 0.4093726 -1.2379925
000280 69 21 ac bf 14 db 14 bf 54 85 1a c0 94 78 91 3e
       -1.3447696 -0.58146787 -2.4143877 0.28412306
000290 03 41 10 be 63 51 90 bc dc 14 ba be 50 db a2 bf
       -0.140873 -0.017616933 -0.3634404 -1.2723179
0002a0 c2 92 2f bc 1c a7 eb 3d 59 62 f4 3a 37 8e 3b be
       -0.010716142 0.11506483 0.0018645033 -0.1831597
0002b0 70 99 a5 3e 53 b5 83 3d 30 34 52 3e c3 50 b3 3c
       0.32343626 0.06431069 0.2052772 0.021889096
0002c0 62 e6 41 3e 03 8f 19 3e d0 c6 7a 3d 99 3d 01 3e
       0.1893554 0.14995961 0.06122476 0.12621154
0002d0 ec 98 7e 3d 5e 12 74 3e 64 5f 69 bd fe 9f 6d be
       0.062157556 0.23835132 -0.056975737 -0.23205563
0002e0 24 e6 fc 3b b4 12 84 3d e5 4f 58 bd e2 5c 01 3e
       0.0077178646 0.0644888 -0.05281057 0.12633088
0002f0 8d 6e 7e 3d 14 2b 40 bd 30 7a 42 3e c6 4d 08 bf
       0.06211715 -0.046916083 0.18991923 -0.5324367
000300 de 5c 9c 3e 8f 35 76 be e6 89 22 be 8e 91 b2 3e
       0.30539602 -0.24043868 -0.15872917 0.34876674
000310 eb ab f2 bd a0 ea 87 3e 02 82 e7 be a5 49 5f be
       -0.11849197 0.26546192 -0.45216376 -0.21805437
000320 ad f5 2e bd 8f 0b 4d 3c 7d 8b ac 3e bd 08 4a be
       -0.042714763 0.012514963 0.3370017 -0.19729896
000330 84 dd 0d bf 5a 8a 52 3e 8c c4 b8 3d 97 26 09 be
       -0.5541613 0.2056059 0.09021863 -0.13393627
000340 08 b9 a7 3e 4c 54 78 3e f0 b7 33 3e 46 c5 46 bd
       0.32758355 0.24250907 0.17550635 -0.04852798
000350 a4 da 38 be ba fd 31 3e 3e 1d d9 3e 23 e3 ae 3c
       -0.18052155 0.17381945 0.42405123 0.021348542
000360 ed 78 94 3e 47 6a 20 be 7f 4a 86 3d 2c a9 94 3d
       0.2899851 -0.15665542 0.06557178 0.072588295
000370 8c d0 40 be f7 00 0b bd 7b e4 77 be a1 51 db 3d
       -0.18829554 -0.033936467 -0.24208252 0.10708929
000380 dc 8e 15 3e 60 b8 32 be d1 4e b1 be 08 3d ef be
       0.14605278 -0.17453146 -0.34630445 -0.4672625
000390 16 a8 f6 be 05 df bd 3e 05 90 3d 3e 71 07 a5 bc
       -0.48175114 0.37084213 0.1851197 -0.02014515
0003a0 1a a2 45 be 29 b8 4d 3e 18 70 56 3e 0b 7a a1 bc
       -0.19300118 0.20089783 0.20941198 -0.019711515
0003b0 0f 4e 0c be a1 d7 08 bd 60 d4 28 bf 5e 05 68 3e
       -0.13701652 -0.033408765 -0.6594906 0.22658297
0003c0 55 a1 81 3e da 08 fc 3e 36 f4 5e 3e 6c 45 00 bf
       0.253184 0.49225503 0.21772847 -0.5010593
0003d0 7d b4 16 3c b8 ad 01 be 5d eb d6 3e 6f 16 5b be
       0.009198305 -0.12663925 0.41976443 -0.21395276
0003e0 a8 10 0a be f9 52 d0 bd 99 33 c1 bc fa 53 ba 3e
       -0.13482916 -0.10172076 -0.023584174 0.36392194
0003f0 6b 61 ea 3c 49 2c 79 be ef 72 e8 3c 94 75 2d bd
       0.028610906 -0.243333 0.028375117 -0.04234846

fc1.bias f4 [64]
000000 33 b9 a1 3e 70 20 a3 be 8c 1d 66 be 1b 09 79 be
       0.31586608 -0.31860685 -0.22472209 -0.2431988
000010 8c 04 f7 bd 28 f7 36 bf 78 77 9d be a8 ad 5b be
       -0.12061414 -0.7147088 -0.3075521 -0.21452963
000020 ea 5a 82 3e df e9 98 be 08 4a 1d 3e 75 b8 3b 3e
       0.25459987 -0.2986593 0.15360272 0.18332084
000030 6b 56 67 bd 7c ef b1 3d 56 2c 06 be a9 44 1d bd
       -0.0564789 0.08688256 -0.1310285 -0.038395558
000040 7a fe 79 be 3a a3 b8 be 27 bb 06 bd 42 ae 24 bf
       -0.24413481 -0.36062032 -0.032893326 -0.64328396
000050 0f 57 0b bf ec 3e 94 be c7 0f e1 be 89 be 45 bd
       -0.54429716 -0.28954256 -0.4395735 -0.04827741
000060 4c 98 23 be a4 1d 84 bd 77 69 7e be 4f 92 16 bf
       -0.15976065 -0.06450966 -0.24844919 -0.58817
000070 50 86 30 be b4 89 83 be 33 15 f4 bd 5e 08 dc bd
       -0.17238736 -0.25690997 -0.11918106 -0.107437834
000080 21 ca 04 3e b6 80 4d be 1f f9 be be 75 91 4d be
       0.12967731 -0.2006863 -0.3729944 -0.20075019
000090 ec ed ed 3e 3f f4 a4 3c fe 32 bf bc a9 0a 86 bd
       0.46470582 0.020135997 -0.023339745 -0.06545002
0000a0 c8 5c 2f be 92 13 10 bf d9 80 f8 3e a5 57 c5 3d
       -0.17125237 -0.5627986 0.48535803 0.096358575
0000b0 f9 c2 29 be e9 93 ab be 54 d6 23 be 5b 4d bc be
       -0.16578282 -0.33511284 -0.15999728 -0.36777768
0000c0 c7 c1 ed be 68 a7 e0 bc f2 e4 36 be f6 44 01 be
       -0.46436903 -0.027423576 -0.17860773 -0.12623963
0000d0 7c 5b c9 be 1a af 1a 3f 15 f5 08 3d 2a 9c 7e be
       -0.3932761 0.60423434 0.033436853 -0.2486426
0000e0 90 c4 8a 3e af b4 b7 be 24 67 35 3e 32 0e 07 bf
       0.2710309 -0.35880038 0.17715126 -0.52756035
0000f0 9b 94 41 bd 5f cd 34 be fc 2f 3d ba 2d 9b 9c be
       -0.04726086 -0.17656468 -0.0007216928 -0.3058714

fc2.weight f4 [64, 64]
000000 90 aa cd be d8 8f 57 be 45 75 67 be 29 7d 69 3e
       -0.4016919 -0.21050966 -0.22603329 0.22801651
000010 3d 3f 1b be 45 96 28 bf 5a 51 e7 bc d4 a4 a6 bd
       -0.15160842 -0.65854293 -0.028237034 -0.08136907
000020 8d 62 81 bc db 06 9f 3e ec ae 63 bc 0c a8 de bd
       -0.015794063 0.31059918 -0.013896685 -0.10871896
000030 d7 cf 81 bf 96 e6 53 3e 72 79 18 bf 43 a4 3e bf
       -1.0141553 0.2069343 -0.5956031 -0.74469393
000040 4f 65 02 3c 53 06 f3 bd 8c 55 93 3e 8a b3 9c be
       0.007958724 -0.118664406 0.28776205 -0.30605727
000050 8e 52 4b be 33 00 6c 3d a3 9f 0b 3f 5a 59 54 be
       -0.19855711 0.057617377 0.5454046 -0.2073721
000060 e5 ee 06 bf c6 84 28 3e 07 0f 6a 3e a9 09 37 be
       -0.52708274 0.16456899 0.22857295 -0.17874779
000070 dd da 84 3e 5d 90 84 bd 26 3d c5 be c3 3e 2d be
       0.2594823 -0.064728476 -0.38523215 -0.16918473
000080 b7 b1 90 3e 6d 67 8f be 56 eb 9c be 01 18 de be
       0.28260586 -0.28008595 -0.30648297 -0.4337769
000090 bc 7f c6 be 30 30 81 3e fc 4a 60 3e 15 80 28 bf
       -0.3876933 0.25232077 0.21903604 -0.6582044
0000a0 c8 40 ad 3c 2e 05 02 bf a5 24 97 3e c6 10 57 be
       0.021149054 -0.50789154 0.29520145 -0.21002492
0000b0 ac f7 f9 be aa df 5b bf cf e1 a4 be 8c 68 6c 3e
       -0.4882177 -0.8588816 -0.32203528 0.23086756
0000c0 60 6c 3a bf 42 1c 69 be bb 55 23 be 7b 22 50 3d
       -0.7282162 -0.22764686 -0.15950672 0.050814133
0000d0 14 46 14 bf 79 a7 aa bd ce 44 bc 3e 1d 8b e1 3d
       -0.5791943 -0.08332724 0.36771244 0.11012862
0000e0 9e 35 56 be 0c 67 1d be 10 50 f4 be c0 f0 5b 3e
       -0.20918891 -0.1537134 -0.47717333 0.21478558
0000f0 53 02 43 be 09 0d 0a 3f 8d 65 68 bf e4 c5 69 be
       -0.19043855 0.5392614 -0.90779954 -0.22829396
000100 9e 42 25 3f 75 72 4d bd 79 d0 c1 3d 91 54 7e bd
       0.64554775 -0.050157983 0.09463591 -0.062092368
000110 8f ed 8f 3d 9d d8 52 3d 0f a8 0d 3e b1 96 b5 3d
       0.070277326 0.05147611 0.1383364 0.08866633
000120 60 de 43 bd 96 6d 97 3e 56 93 c1 bc e7 b3 10 bf
       -0.047819495 0.29575795 -0.023629826 -0.5652451
000130 47 c2 c8 3e 6d 4f 81 be 65 d0 75 be 56 5e 45 3f
       0.39210722 -0.2525591 -0.24005277 0.7709707
000140 48 02 49 3e 9c 3c a1 3d da b4 1e 3e 25 31 c1 3d
       0.19629776 0.078728884 0.15498677 0.09433202
000150 ca ad 4c 3e bb 32 4b 3e 3e bc 78 be b3 2b 9d 3e
       0.1998817 0.19843571 -0.24290559 0.30697402
000160 af f9 cb be 8d 66 88 3e b3 7b 95 be 5c 21 91 3d
       -0.3983893 0.2664074 -0.29195938 0.07086441
000170 c6 57 93 3a 50 5f ca be 74 4c c8 3e f1 b3 c2 3a
       0.0011241368 -0.39525843 0.3912083 0.0014854652
000180 a9 ae 39 3e ca ff 3e 3f 2c 8f 10 be 89 28 8b be
       0.18133034 0.74609053 -0.14117116 -0.27179363
000190 a0 a7 55 be 9e b8 02 bc 8f 5e e5 be b2 af 79 3d
       -0.20864725 -0.0079785865 -0.44798705 0.06095857
0001a0 04 a3 a0 be b0 cc 07 3e d9 fc 33 3f 7f 98 85 bd
       -0.3137437 0.13261676 0.7030769 -0.06523227
0001b0 c6 23 ad bd 11 a7 07 3e 22 e5 a0 3b c0 46 bc 3d
       -0.08454089 0.13247325 0.0049101273 0.09193182
0001c0 81 5b 2c 3e ac 84 e7 3e c0 5f a9 3c 59 e7 d9 be
       0.16831781 0.45218408 0.02067554 -0.42559317
0001d0 65 a2 02 be 06 6a 2d bf 78 bd ed 3d ad 03 7e 3c
       -0.12757261 -0.67739904 0.11608404 0.015503806
0001e0 49 95 68 be 93 15 54 3d d6 78 2a 3e ad 5c 5e 3e
       -0.22713198 0.051778387 0.16647658 0.2171504
0001f0 fd d1 39 be aa a9 a8 be d6 a8 5a bd a2 7e af 3c
       -0.1814651 -0.32941943 -0.05338367 0.021422688
000200 ea 5f 85 be 6b 55 8b be 19 af 91 be 0f 02 f1 bd
       -0.2604974 -0.27213606 -0.284539 -0.11767971
000210 7d 6c 8d bc 1c 2c 39 be a9 4d 98 3c 3c 86 cc bc
       -0.017263645 -0.18083233 0.018591719 -0.024966352
000220 cd b0 13 be 62 25 73 be f1 24 a0 bc 21 58 2c 3d
       -0.14422913 -0.23744729 -0.019548865 0.042076234
000230 9d e5 1b 3c fc b9 b9 3e 7d a8 dd 3d 7e c4 1a bf
       0.009515193 0.36274707 0.10823152 -0.60456073
000240 01 cb 0d be 2f d4 e5 3c 19 89 a3 3d db e5 03 be
       -0.13846971 0.028055279 0.07985134 -0.12880652
000250 37 68 9b bd 9f ed 66 3d 09 95 dc bd a7 e4 f3 be
       -0.07588237 0.056378957 -0.10770614 -0.47635385
000260 bc c6 4f bd 69 99 63 3d dc db 68 bc c5 f6 93 3d
       -0.050726637 0.055566225 -0.014212575 0.07224802
000270 c0 c8 0c 3c 63 6b 8d 3e 2e 8b f9 be 0d 8f 1d be
       0.008592784 0.27620992 -0.48738998 -0.15386601
000280 fd e8 2c be 09 2f 92 be 18 37 fc bc c6 25 2a 3e
       -0.16885753 -0.2855151 -0.03078799 0.16615972
000290 a5 a7 95 3e 16 7d 36 bb 08 91 8c be 0f 65 c0 bd
       0.29229465 -0.0027845553 -0.274544 -0.093942754
0002a0 ef 4a 6b 3e 86 c3 11 3e 90 83 0e be 9b 45 78 be
       0.22977804 0.14234743 -0.13917375 -0.24245302
0002b0 4e f4 02 3d da 60 91 bd b1 48 ee bd ce 1f 9e be
       0.03197127 -0.07098551 -0.116349585 -0.3088364
0002c0 bc bb e8 3c 93 bb 81 be 91 d9 e4 bd 38 12 eb 3c
       0.028409831 -0.2533842 -0.1117431 0.02869521
0002d0 9a 4f f4 bd 7a a7 bd 3d 25 96 66 be 10 e3 f9 bd
       -0.11929245 0.09260459 -0.22518213 -0.12201512
0002e0 06 6d a4 be 77 de a5 bd 4c cb 6b be 93 6a 36 bd
       -0.32114428 -0.080990724 -0.2302677 -0.04453523
0002f0 62 fd b3 be 03 7d 07 bd 73 aa 33 be b9 e0 0c 3d
       -0.35154253 -0.033078205 -0.1754549 0.034394
000300 e9 2b 74 bf d3 d2 92 be f5 1d 0d bf 99 3e 27 3e
       -0.953795 -0.2867647 -0.55123836 0.16332473
000310 27 64 99 be 21 92 a0 be 55 e3 0c be e9 fb d2 be
       -0.29959223 -0.31361488 -0.13758595 -0.41207817
000320 da 66 0c bf 4b 59 38 3e 3f 6d 3a 3d 14 c3 ac 3e
       -0.5484444 0.18002813 0.04551434 0.33742583
000330 c8 ab db be dd 8b de 3d 49 55 d6 be 3a 2b 87 bf
       -0.42904496 0.108665206 -0.41861942 -1.0560067
000340 bd c9 04 bf c6 67 24 bf ab 47 b8 be 52 3e 1b bf
       -0.5187033 -0.64220846 -0.35992178 -0.6064197
000350 b5 95 83 bf 74 34 e2 3d f0 6b 91 3e df 74 7e be
       -1.0280062 0.11045161 0.28402662 -0.2484927
000360 21 d2 8f bd 1f 07 da be 19 ba 0a bf 30 3b 97 3e
       -0.07022501 -0.42583558 -0.5419021 0.29537344
000370 c6 c5 9e 3e 0b 81 47 3e 6c 40 1b bc 0e bb 61 be
       0.31010264 0.1948282 -0.009475809 -0.22044012
000380 7c 8c 76 bd b3 38 4f bb c2 93 6a bf 18 28 04 3e
       -0.06019257 -0.0031619489 -0.9163171 0.1290592
000390 ff 5c fb be e2 61 6a 3e f3 c4 5f 3d 38 5f f1 be
       -0.49094388 0.22888902 0.054631185 -0.4714296
0003a0 70 f2 26 bd a0 ce 33 be 2d 56 34 be 38 10 f1 be
       -0.04075855 -0.1755929 -0.17610998 -0.47082686
0003b0 30 e7 78 be 48 58 33 bf b2 93 92 be 3c fe 81 3e
       -0.24306941 -0.7005658 -0.28628308 0.25389278
0003c0 fe 11 70 be 7a 1d 4b be e7 73 51 bf 0b f7 0f 3e
       -0.23444363 -0.19835463 -0.8181748 0.14059083
0003d0 17 fd 54 be 10 d2 08 bd 64 13 49 be b4 34 17 3e
       -0.20799671 -0.033403456 -0.19636303 0.14766198
0003e0 de 65 8f be b8 8e 21 bf b1 43 c5 be fc 88 82 3e
       -0.28007406 -0.63108397 -0.38528207 0.25495136
0003f0 ae d6 88 3b d1 35 54 3e af 73 ef be 23 63 81 be
       0.0041759824 0.20723654 -0.46767947 -0.25270948

fc2.bias f4 [64]
000000 9c 69 1b be a0 8c 02 bd 1d 5b 95 3f d1 05 02 3c
       -0.15177006 -0.03187239 1.166843 0.007935957
000010 b1 b0 fe 3d 3f ab 43 be b7 cc 43 3e cd e8 96 be
       0.12436045 -0.19108294 0.19121061 -0.29474488
000020 11 ad 85 3e 8e c1 a9 3f 12 27 2e be 67 70 25 3e
       0.26108602 1.3262193 -0.17007092 0.1615616
000030 a4 45 df bc 7e 1d a2 bb a9 4b 9b be c3 37 e8 3c
       -0.027254887 -0.0049473634 -0.30331162 0.028346902
000040 20 7e b6 3b e9 4b f9 be 47 57 c7 bd 33 d0 09 3f
       0.0055692345 -0.48690727 -0.09733444 0.5383331
000050 ba ea 98 3e 95 99 04 3e cf 3a 70 be 75 38 8f 3e
       0.29866582 0.12949212 -0.23459934 0.2797276
000060 09 c8 90 be d6 2c 16 be ab a9 5c 3d b8 eb b0 be
       -0.28277615 -0.14665541 0.053872745 -0.3455484
000070 da b1 d7 3d de c8 08 be 5c a2 92 3d 5e 2b 3f bd
       0.10531969 -0.13357875 0.07159874 -0.046672218
000080 97 60 9a bd e2 ac 56 3e 40 bd 19 3e 9f f7 15 be
       -0.07537954 0.20964387 0.150136 -0.14645241
000090 1f 27 46 3e 6a f8 36 be 0f 3c 2d 3f cf 26 b5 be
       0.19350861 -0.178682 0.6766977 -0.3538117
0000a0 fb 06 47 be c0 bd b9 3f e2 bd 9e 3f 9f d7 ee bd
       -0.19436257 1.4511032 1.2401698 -0.1166222
0000b0 78 04 1c 3d e8 68 22 3e a1 88 94 bd 7d 9e a1 be
       0.0380902 0.15860331 -0.072526224 -0.3156623
0000c0 70 d2 45 3f 27 74 29 be 1b 58 98 3d 91 c1 51 3f
       0.7727423 -0.16548215 0.0743868 0.81935984
0000d0 c2 1e 1c be f2 09 4f 3d 43 c1 0b 3f c0 7b f0 bc
       -0.15246108 0.050546594 0.5459177 -0.029355884
0000e0 02 a8 4b be c1 11 9c be b6 1d d5 bc 42 e6 6d 3c
       -0.19888309 -0.30482295 -0.026015144 0.01452023
0000f0 88 ee 10 3d 00 0e 88 3d 22 31 77 be c4 bc b5 be
       0.03538373 0.06643295 -0.24139836 -0.3549558

fc3.weight f4 [4, 64]
000000 f9 4b 5f bf 30 6f 97 3e 54 1f 8d 3e fc 85 5e bf
       -0.872253 0.29577017 0.27562964 -0.86923194
000010 83 7a 35 3e 02 53 0e bf d6 cf c4 3e 81 f4 a2 bd
       0.17722516 -0.5559541 0.38439816 -0.07956792
000020 2c a8 88 3d 45 14 93 3e 62 c8 9b be 19 11 1f 3c
       0.06672701 0.28726402 -0.30426317 0.009708666
000030 28 99 b2 3d 65 31 21 bf 2b 33 20 be b5 51 fc 3d
       0.087206185 -0.62965995 -0.15644519 0.12320272
000040 2a 6f a8 3e a8 85 c6 3d cd 94 f5 3d 5d a4 df 3d
       0.3289731 0.09693462 0.11991272 0.10920022
000050 21 1f 49 3e d7 17 0c 3e fe 37 2d 3d 23 a1 98 3d
       0.19640781 0.13680969 0.042289726 0.074526094
000060 3b 01 a5 3d a2 fd 43 bd 81 26 60 bf 02 fa 8b 3d
       0.08056875 -0.047849305 -0.8755875 0.068347946
000070 c9 be 81 bd ba c7 49 3e 5f e4 4d bf 86 e8 5d 3d
       -0.063352175 0.19705096 -0.8042659 0.05417683
000080 4e de 98 3e b7 29 bc 3d d8 66 87 3e 37 16 80 3d
       0.29857105 0.09187644 0.2644565 0.06254237
000090 da 34 29 3e a9 71 9e bf cc bb f4 3d f7 4b 81 3d
       0.16524068 -1.2378436 0.11949882 0.06313317
0000a0 2f 25 61 3d b6 08 b1 3e db df 9a 3e f5 91 8e 3e
       0.0549671 0.34576958 0.30248913 0.2784573
0000b0 bb 67 6a 3e 96 7e 06 3e c3 8d 47 bf a3 9f b2 3d
       0.22891133 0.13134226 -0.77950686 0.087218545
0000c0 85 46 2d bd 4d 9a eb bd d0 fb db 3e 13 19 75 3e
       -0.04230358 -0.1150404 0.42965555 0.23935346
0000d0 26 50 0e 3e 8f 43 64 be 3c 91 bd 3d 2a f2 5b 3f
       0.13897762 -0.22291397 0.09256217 0.8591639
0000e0 e8 06 ef bd 2d 2b 4b be 95 ae 0a bf c7 d0 18 3e
       -0.11671239 -0.19840689 -0.5417264 0.14923392
0000f0 40 9a 26 bf 7c 83 44 3d 3d 26 40 be bd f6 07 bd
       -0.65079117 0.047976956 -0.18764587 -0.033194292
000100 74 d6 00 3e e3 e6 aa 3e ac f9 b8 3e 92 6c 56 bd
       0.12581807 0.33379278 0.36127985 -0.052349634
000110 e6 88 33 3e a8 83 ef 3d 52 ba 01 3f 1b 06 0d bd
       0.17532691 0.11695033 0.5067493 -0.03442965
000120 3f 0c ad 3d e1 b4 b5 3e ac 9c fd bd 72 25 0b 3e
       0.084496014 0.35489562 -0.123833984 0.13588503
000130 49 68 66 3e 72 fe 9a 3e 55 88 8e bd 3a 48 46 3e
       0.22500719 0.3027225 -0.06959597 0.1936349
000140 88 ca da 3e 5c 1d da 3d a2 d5 08 3e 83 c0 74 3d
       0.42732644 0.10650131 0.13362744 0.059753906
000150 99 08 83 3e 52 60 6b 3e 9b 22 c6 bd e4 d8 76 3d
       0.25592497 0.22985962 -0.09674569 0.060265437
000160 f4 1b a7 3c d0 56 93 bd 36 c1 2f bd 51 f7 15 bf
       0.020399071 -0.071942925 -0.04290887 -0.585805
000170 28 da 9b 3d e1 f1 93 3e 86 7f 89 3e 01 01 40 3d
       0.076099694 0.28895476 0.26855105 0.046875957
000180 b5 e3 40 be 56 53 0a 3e f4 e6 84 3d fa 3e e0 3e
       -0.18836863 0.13508353 0.06489363 0.43798047
000190 b0 02 03 3d d1 d1 89 3c a9 d5 7b 3e 38 c0 c8 3e
       0.031984985 0.016823681 0.24593224 0.3920915
0001a0 03 b0 31 3d 34 d4 bd 3e 11 e7 11 3e c7 1a 8f 3e
       0.04338075 0.3707596 0.14248301 0.27950117
0001b0 16 80 d6 3d 06 e1 5a 3e 87 e9 15 3e 36 76 90 bd
       0.10473649 0.21374902 0.14639865 -0.07053797
0001c0 7c d1 e4 bb ae 65 15 3e 41 3b 3f bf 15 67 fb 3d
       -0.0069829803 0.14589569 -0.7469979 0.12275521
0001d0 30 79 bb 3c d9 b0 fb be d6 d8 78 3d 3d 99 b1 3e
       0.022884935 -0.49158362 0.060753666 0.34687224
0001e0 ab 89 70 3e e0 02 89 be ed 35 af 3d 4b b3 06 3e
       0.23490016 -0.26760006 0.085552074 0.13154332
0001f0 18 62 89 be f4 34 d4 3d c6 33 d3 bd 36 80 39 3e
       -0.26832652 0.103616625 -0.103126094 0.18115315
000200 44 a7 57 bd 86 2f 09 bd 4b ba a3 3e 4e 6f bd 3d
       -0.05264975 -0.033492588 0.31978068 0.09249745
000210 ef b2 2f 3c a6 0b 33 3e fd 27 d3 3e 61 51 92 bc
       0.010723813 0.17484912 0.41241446 -0.01786107
000220 21 58 3b 3d e4 c4 67 3e 18 3f 4a be c2 a6 49 3e
       0.045738343 0.22633702 -0.19750631 0.1969252
000230 09 9c 7d 3d e0 46 c5 bd ae e0 83 be 58 4c ed 3e
       0.061916385 -0.09632659 -0.25757354 0.46347308
000240 79 ba a8 3d e8 d2 f3 bd 69 9d 03 be ff 07 2b 3e
       0.08238692 -0.119054615 -0.12853016 0.16702269
000250 af 3b 61 3e 09 f4 62 3d 86 8f 1b bf 5f 57 20 3e
       0.21995424 0.05540851 -0.60765874 0.1565833
000260 5d e7 22 be 4f 23 45 bd 55 50 aa 3d 12 ab 4d 3e
       -0.1590857 -0.048129376 0.08316103 0.2008479
000270 63 eb c6 3d f7 13 88 3e ed 45 0d 3e 69 a8 c8 3d
       0.09712865 0.26577732 0.13796206 0.09797747
000280 d4 81 bf be 2b e3 01 be bc 46 64 3e ce 51 16 3f
       -0.37403738 -0.12684314 0.22292608 0.58718574
000290 cf 1f 81 be df e5 9f be ed 56 11 3e ee 59 a6 3d
       -0.2521958 -0.31230065 0.14193316 0.081226215
0002a0 4e c8 f3 3d be c9 ba 3e bf af 9f 3e c3 5b ad 3e
       0.119034395 0.36482042 0.3118877 0.3385907
0002b0 09 7f ec 3d 16 fa 2b 3e 48 ec 7a 3e 59 97 2c 3d
       0.115476675 0.16794619 0.24504197 0.042136524
0002c0 43 b2 fb 3d b1 2f 93 3e cb b1 27 3d ba 47 0d 3e
       0.1228986 0.28747323 0.04094104 0.13796893
0002d0 1f 97 1b be 64 0c 73 3d 3d cb 57 bc 20 3a d1 3e
       -0.15194367 0.05933799 -0.013171014 0.40864658
0002e0 63 27 10 bf fb 92 dc bd 9f d6 61 bf e4 96 59 be
       -0.563101 -0.10770222 -0.8821811 -0.21248966
0002f0 11 8c 43 3d 75 c3 93 bd 2e 8f 90 3d 0c ea 03 be
       0.047741 -0.07215015 0.07058559 -0.1288225
000300 3c 8d e1 3e b3 0c 6a 3e b7 e9 85 3e 3f 15 83 bd
       0.44053066 0.22856407 0.26154873 -0.06400537
000310 e4 c8 42 3e 0a 0d df 3d 05 8d 6b 3e 49 d1 24 be
       0.19021946 0.10891159 0.23003013 -0.16095461
000320 0e 71 23 3e ae c0 a7 3e cd 61 d9 be 97 59 79 bd
       0.15961096 0.3276419 -0.4245743 -0.060876455
000330 b6 67 01 3e 25 96 f0 be 8a 56 b1 bc a9 87 ed 3c
       0.12637219 -0.4698955 -0.02164771 0.028995352
000340 1b ee af 3e ba 6c 54 3e 10 50 eb 3d e2 f2 ac 3c
       0.34361348 0.20744601 0.1148988 0.02111191
000350 6d b1 01 3e e8 54 ee 3e 87 b5 e0 3c 84 8c f4 3d
       0.12665339 0.46549153 0.027430309 0.11940864
000360 06 77 3c bf fa 82 8e bd 59 1e 8a 3d d0 07 80 3d
       -0.73619115 -0.069585755 0.067440696 0.0625149
000370 d6 f5 64 3e 6b c4 92 3d 86 6c a2 3e 12 21 e7 3c
       0.22359404 0.0716637 0.31723422 0.028214011
000380 17 99 76 be 52 7c 37 3d 90 7e fe 3c 15 56 5d 3e
       -0.24081837 0.044796295 0.03106621 0.21614869
000390 79 43 87 3e ae 94 7f be dd ee f3 3d c5 b2 86 3e
       0.26418665 -0.2495906 0.11910794 0.26308265
0003a0 72 70 47 bd 74 b7 a2 3e c3 49 a9 3e 9a dc af bd
       -0.04869122 0.3178059 0.33064088 -0.08586998
0003b0 58 13 54 3e 71 d4 82 bb ec 58 02 3e 65 15 56 3d
       0.20710504 -0.00399261 0.12729234 0.052266497
0003c0 95 df 49 3e ae 4e f4 be 05 ad be 3e 25 16 8e 3d
       0.19714196 -0.47716278 0.37241378 0.069378175
0003d0 7c d8 47 bf 1f 19 06 bf ae 66 20 3e 67 41 2b 3f
       -0.78064704 -0.5238208 0.15664169 0.6689667
0003e0 6c 9f cb bd fb 89 ea bd 2c 63 20 3d 20 3c 31 bc
       -0.09942517 -0.11452099 0.039157078 -0.010817558
0003f0 91 b6 c8 bc 5e 24 46 3d d4 94 07 be a0 d7 10 3e
       -0.024501117 0.048374526 -0.13240367 0.14144754

fc3.bias f4 [4]
000000 5a 47 80 3f ec 4b 4b 3f 6d 17 60 3f cc 1b 50 3f
       1.0021775 0.7941272 0.87535745 0.81292415
