weights/DDQN_model_weights_C5000.pth (torch_old, 28405 bytes, 6 tensors)

fc1.weight f4 [64, 37]
-0.032722443 -0.733257 -0.08670825 0.28295887 0.0813389 -0.025671406 -0.46520752 0.49825552
-0.55118245 -0.38197237 -0.31173593 -0.012342625 0.1329641 -0.3360761 -0.12426849 0.09114992
0.23863843 -0.36102054 0.23701197 0.39362642 0.13531967 0.24888225 0.10341658 -0.25278038
0.2542297 0.15148099 -1.1983861 -0.13493873 -0.25548947 -0.776192 -0.27785423 -0.040758815
0.25303844 0.028075086 -0.24810003 -0.07221533 -0.0006049371 0.07473841 0.08433062 -0.02424747
0.120990686 -0.29601806 0.14725581 -0.83813053 -0.25043577 -0.6767438 -2.3966854 -0.21456711
-0.058360264 0.032107715 0.33364406 0.34950978 -0.048060298 -0.035011254 -0.029367665 0.25592372
-0.03089939 -0.3906503 0.11004193 -0.28706452 0.32539994 0.40619424 -0.13624457 -0.20380354
0.051250342 0.400535 0.023449771 -0.014749715 0.06555858 -0.04061263 0.5294929 0.60555935
-0.09865355 0.002408407 0.020186802 0.24265794 -0.0749926 0.19713381 0.095322795 -1.994882
0.30285975 0.43573943 -0.19326435 -0.6605098 -0.12761943 0.114888154 -0.12403478 0.12935495
0.093235694 -0.33186573 0.046094876 0.016221149 0.29020748 0.12868798 -0.2747038 -0.07922874
0.20521095 0.30570984 0.3648411 -0.027230427 0.16972259 0.103594735 0.21024646 -0.023511073
-0.41445252 -0.22350194 -0.06258652 0.3007911 0.017923517 0.0063781785 0.07042626 -0.32360473
-0.30779484 0.726647 -0.4798447 -0.8002239 -0.03975586 -1.2225568 0.003159984 0.011575219
-0.6146913 0.32670963 -0.33802536 -0.30337235 -0.9362121 -0.75050664 0.261046 -0.41121683
-0.20754045 -0.63931197 -0.11691297 -0.2721919 0.16451798 -0.13418515 0.10573923 0.23890741
-0.17076518 -0.30511802 0.312492 -0.53781754 -0.021495307 0.14949022 0.22562473 -0.24434288
-0.93207276 -0.4989239 0.18426268 0.021008195 -0.13513756 -0.13479716 -0.15136155 0.032621868
0.017147772 0.5723216 -1.2524838 -0.09916847 -1.404455 -3.3875365 0.032550614 -0.26114985
0.112089574 -0.23409303 -0.035104144 -0.1170979 0.061965518 -0.035640568 -0.09267027 0.30091462
-0.1303306 -0.17818855 0.1792623 0.07174495 0.17054151 -0.26760048 0.36967996 0.22562668
0.5404083 0.5725161 -0.19441962 0.4925246 0.15557086 0.3180645 0.11441641 -0.011816958
-0.007790051 -0.14916393 0.15830158 -0.4048098 0.29492003 -0.15918681 0.13077942 0.01584012
-0.11165849 0.183932 0.095375836 -0.1786386 -0.6830278 -0.15122199 0.29991302 0.0144142425
0.09000587 -0.086761646 -0.3266135 0.06744662 -0.66985637 0.22765473 -0.34091887 -0.19806328
0.2131853 -0.1674774 0.0052677505 -0.9711363 -0.90609324 -0.23184 -2.015957 -0.004258591
-0.5047266 0.37704507 -0.6356323 -0.21748066 0.29146665 0.030862281 0.09033333 0.21238074
-0.0030719026 -0.6783346 -1.0044513 -1.9330419 0.06208747 0.4309068 -0.49711993 -0.9553886
-0.12694848 -0.29042232 0.11046523 0.112370804 0.250744 -0.12798963 -0.37699875 0.39806232
-0.5958083 0.7501748 -0.78974724 0.082656816 0.06489319 0.5653328 0.5096998 -0.46567115
-0.055525456 0.40282348 -1.1132246 -0.38586202 0.32369044 -0.025278207 -0.16447297 0.03297176
00000000: f807 06bd bbb6 3bbf 1894 b1bd fcdf 903e
00000010: 0295 a63d d74c d2bc ae2f eebe 591b ff3e
00000020: 4b1a 0dbf e291 c3be da9b 9fbe b938 4abc
00000030: be27 083e 2b12 acbe 7a80 febd cfac ba3d
00000040: a25d 743e afd7 b8be 44b3 723e 6789 c93e
00000050: 3d91 0a3e fdda 7e3e 12cc d33d 6e6c 81be
00000060: 652a 823e d51d 1b3e b764 99bf 612d 0abe
00000070: 84cf 82be 85b4 46bf e942 8ebe b7f2 26bd
00000080: 418e 813e b9fd e53c ef0d 7ebe a2e5 93bd
00000090: a494 1eba 7410 993d 88b5 ac3d a1a2 c6bc
000000a0: f7c9 f73d ae8f 97be 3aca 163e b98f 56bf
000000b0: 1e39 80be 153f 2dbf 4b63 19c0 7bb7 5bbe
000000c0: 2c0b 6fbd 6183 033d 65d3 aa3e f2f2 b23e
000000d0: e0da 44bd f667 0fbd 7594 f0bc 6f08 833e
000000e0: b820 fdbc 5103 c8be aa5d e13d 1ffa 92be
000000f0: d29a a63e b1f8 cf3e b283 0bbe e0b1 50be
00000100: e1eb 513d ec12 cd3e bc19 c03c caa8 71bc
00000110: 9443 863d 6e59 26bd d98c 073f f005 1b3f
00000120: df0a cabd 5dd6 1d3b cb5e a53c 537b 783e
00000130: b895 99bd 72dd 493e 9938 c33d 4b58 ffbf
00000140: 6f10 9b3e 3d19 df3e 17e7 45be 2c17 29bf
00000150: abae 02be 7b4a eb3d f205 febd a075 043e
00000160: 5bf2 be3d 4eea a9be fbcd 3c3d 37e2 843c
00000170: 1396 943e c8c6 033e faa5 8cbe ad42 a2bd
00000180: d222 523e 0086 9c3e 74cc ba3e 5812 dfbc
00000190: c2cb 2d3e 7a29 d43d d94a 573e 4b9a c0bc
000001a0: 1f33 d4be b1dd 64be 5d2d 80bd 4b01 9a3e
000001b0: 57d4 923c 0a00 d13b a53b 903d 85af a5be
000001c0: 4997 9dbe 8a05 3a3f 34ae f5be 79db 4cbf
000001d0: 0ad7 22bd be7c 9cbf bc17 4f3b fda5 3d3c
000001e0: 695c 1dbf 7c46 a73e a911 adbe 9f53 9bbe
000001f0: 99ab 6fbf 3421 40bf d2a7 853e 038b d2be
00000200: 7c85 54be f3a9 23bf 1170 efbd bd5c 8bbe
00000210: 6777 283e d567 09be cf8d d83d 25a4 743e
00000220: 11dd 2ebe 6e38 9cbe f4fe 9f3e 69ae 09bf
00000230: ed16 b0bc f713 193e 2b0a 673e 0535 7abe
00000240: 529c 6ebf f472 ffbe 5baf 3c3e 6119 ac3c
00000250: 8061 0abe 4408 0abe 86fe 1abe 829e 053d
00000260: 7c79 8c3c ab83 123f 6451 a0bf d718 cbbd
00000270: 2ec5 b3bf 66cd 58c0 cb53 053d 6fb5 85be
00000280: 388f e53d 15b6 6fbe 5dc9 0fbd 06d1 efbd
00000290: 8ecf 7d3d d8fb 11bd e9c9 bdbd 7b11 9a3e
000002a0: 6375 05be 0f77 36be 8990 373e 04ef 923d
000002b0: 6fa2 2e3e ee02 89be b146 bd3e ae0a 673e
000002c0: 3358 0a3f 6a90 123f f015 47be 2f2c fc3e
000002d0: f84d 1f3e 5ad9 a23e 2753 ea3d ea9b 41bc
000002e0: af43 ffbb 6ebe 18be cf19 223e 3b43 cfbe
000002f0: c2ff 963e de01 23be 0aeb 053e 24c3 813c
00000300: 35ad e4bd ac58 3c3e 6854 c33d 0aed 36be
00000310: e9da 2ebf f0d9 1abe 338e 993e b729 6c3c
00000320: ff54 b83d 17b0 b1bd e239 a7be 7421 8a3d
00000330: b57b 2bbf 521e 693e eb8c aebe 1ad1 4abe
00000340: 3f4d 5a3e 327f 2bbe 189d ac3b 639c 78bf
00000350: baf5 67bf 7767 6dbe 7105 01c0 a78b 8bbb
00000360: c335 01bf 0d0c c13e ccb8 22bf 40b3 5ebe
00000370: 1e3b 953e e5d2 fc3c ae00 b93d 567a 593e
00000380: f951 49bb 56a7 2dbf dc91 80bf eb6d f7bf
00000390: 6e4f 7e3d d19f dc3e 8186 febe 5994 74bf
000003a0: c8fe 01be 3cb2 94be 983b e23d aa22 e63d
000003b0: 8461 803e b70f 03be fb05 c1be d3ce cb3e
000003c0: e586 18bf 750b 403f e02c 4abf fa47 a93d
000003d0: b9e6 843d a6b9 103f b07b 023f 736c eebe
000003e0: a96e 63bd e13e ce3e 257e 8ebf b58f c5be
000003f0: c1ba a53e 3e14 cfbc 9a6b 28be 650d 073d

fc1.bias f4 [64]
-0.0059311036 -0.14442256 -0.19759507 -0.08108151 0.11795867 -0.25104707 -0.014803805 -0.0123931635
-0.21173544 -0.3256823 0.110469796 0.27106732 0.158031 0.026347557 0.020139104 -0.17278518
0.18575352 0.019754425 0.027811855 -0.029531367 -0.24657167 -0.01975313 -0.059008263 -0.023840738
-0.12727964 -0.05148033 -0.0034703999 -0.03660823 0.33763292 0.061011158 0.03687858 -0.012091364
0.17297553 -0.18428093 -0.2030601 -0.06583929 -0.015787957 0.04720265 -0.1265659 -0.23365107
-0.11138806 0.18946955 -0.174712 0.13972628 -0.24993184 -0.25322488 0.007151724 -0.08810346
-0.19478972 -0.016608762 -0.4383736 0.06491838 -0.27024624 -0.17836834 -0.38304183 0.0012665427
0.19004859 -0.051915046 -0.1356173 -0.016468495 -0.13962328 -0.17590046 -0.08056311 -0.0022782444
00000000: b459 c2bb 82e3 13be 5d56 4abe 100e a6bd
00000010: 5194 f13d 3e89 80be a98b 72bc b20c 4bbc
00000020: 2dd1 58be d5bf a6be fd3d e23d 56c9 8a3e
00000030: e1d2 213e d5d6 d73c c3fa a43c 99ee 30be
00000040: 2c36 3e3e 08d4 a13c b0d5 e33c c4eb f1bc
00000050: 497d 7cbe 51d1 a1bc a6b2 71bd a74d c3bc
00000060: 9855 02be 0add 52bd a66f 63bb 83f2 15bd
00000070: 39de ac3e d6e6 793d fe0d 173d db1a 46bc
00000080: 7f20 313e 24b4 3cbe fdee 4fbe c0d6 86bd
00000090: bf55 81bc 9157 413d 7e9a 01be 3a42 6fbe
000000a0: 6c1f e4bd 4e04 423e b4e7 32be 6814 0f3e
000000b0: 22ee 7fbe b1a6 81be 0259 ea3b 966f b4bd
000000c0: f576 47be 190f 88bc 8172 e0be edf3 843d
000000d0: b75d 8abe 31a6 36be 0f1e c4be 1f02 a63a
000000e0: 199c 423e dfa4 54bd 43df 0abe f0e8 86bc
000000f0: 68f9 0ebe 401f 34be 46fe a4bd 994e 15bb

fc2.weight f4 [64, 64]
-0.20703918 -0.46422824 -0.5103577 -0.028878583 -0.49285454 -0.4756264 0.49621245 -0.37861657
-0.28481564 0.38938278 -0.47277758 -0.30540445 -0.80908304 0.08719179 -0.39861706 -0.6030782
-0.65686417 -0.49538326 -0.26833662 -0.80763525 -0.18618475 -0.68939406 0.19306716 -0.5761098
-0.5882699 0.08867128 0.16957879 0.1433316 -0.13908732 -0.8706504 -0.7172083 -0.16435039
0.104383685 -0.7830516 -0.24736968 -0.1198558 -0.025583131 0.46339917 -0.37721783 0.15412782
-0.73310924 -0.22275043 -0.23519547 -0.4958371 -0.04473916 0.25676095 -0.22122627 -0.45078376
-0.3500037 -0.8189369 0.13075683 0.23511577 -0.6857287 -0.91456735 0.068405904 -0.92178506
-0.0048535815 -0.5266182 -0.35061878 -0.4024124 -0.061297964 -0.116061434 -0.05680113 -0.54211104
-0.45348868 -0.065036595 0.23834106 -0.25314778 -0.30543414 0.2973967 -0.5101675 -0.50286597
0.45677555 -0.22471291 -0.11453188 0.0018342535 -0.4872442 0.06704422 -0.34942484 -0.31063122
-0.44823372 -0.6463015 -0.77722925 0.31610462 0.014446723 -0.4471913 0.21670175 -1.1085584
0.055428512 0.20401794 -0.6726389 -0.4707501 0.103401534 -0.4569018 0.5164594 -0.36832243
-0.5036997 -0.18917939 -0.2561234 -0.54044217 -0.63382053 0.12417999 -0.13067108 0.516121
0.4618288 -0.23676564 -0.54391617 -0.19244763 -0.16064368 -0.8900129 -0.75137764 -0.18221492
-0.07834724 -0.92977923 -0.100507714 0.44721198 0.520015 -0.4903525 0.045367256 0.1679845
-0.045356695 -0.22767644 0.4038716 -0.3883736 -0.24985953 0.049940594 -1.3894157 -0.0624495
-0.049835086 0.12624754 -0.14215665 0.26358455 0.07041517 -1.3003377 0.036729302 0.103525795
0.35123175 0.29538712 -0.7250291 -0.48681715 -0.005801892 -0.1804775 0.07927922 0.03317119
0.11922165 -0.26622573 -0.16346547 -0.03745511 -0.43806943 -0.25492477 -0.1114003 -0.22113775
-0.24860835 0.16225712 0.1937646 -0.11292454 -0.69305044 -0.5614098 -0.032529257 0.18195255
0.45543373 -0.17186555 -0.21441203 -0.10108635 0.03479504 1.0990999 0.1378069 0.041770395
0.2649979 0.13222942 0.034421887 -0.375939 0.021871362 0.37310606 0.063766666 -0.7768047
-0.035679296 0.15528725 0.019912755 -0.77868927 -0.48144817 -0.11505051 0.019039586 -0.24078016
-0.3628187 -0.15438783 -0.8118918 -0.42799208 0.4360037 0.04522539 0.000676799 -0.019717684
-0.30981892 -0.28818604 -0.1352494 0.18398613 -0.17956859 -0.45650122 -0.044353705 -0.71554494
-0.56910425 0.039264757 -0.23509789 0.19815592 -0.7248623 0.06686501 -0.5356152 -0.9302701
-0.27632043 -0.40963838 0.07547229 -0.069390714 0.34575796 0.07275905 0.10503017 -0.42399734
-0.6650601 0.0035768624 -0.2873591 0.12776676 0.060792726 -0.40312344 -0.12594558 -0.39546064
0.083098546 -0.64988434 -0.6553785 0.30628213 -0.94745225 0.11276945 0.134172 -0.4215737
-0.6601316 -0.23120886 -0.6433103 -0.641732 -0.5004879 -0.73350346 -0.90564317 0.15226705
-0.21038437 -0.7366304 -0.25250402 0.16502179 -0.030010717 -0.8375711 -0.23022611 -0.12066948
-0.23284696 -0.60904765 -0.1724167 0.11469013 -0.29106224 -0.059331354 -0.106638215 -0.2590326
00000000: 1402 54be 53af edbe cda6 02bf c792 ecbc
00000010: 6e57 fcbe 4e85 f3be 8f0f fe3e 08da c1be
00000020: 5bd3 91be 2e5d c73e e70f f2be f95d 9cbe
00000030: 1120 4fbf 9c91 b23d 8917 ccbe 5563 1abf
00000040: 4028 28bf e0a2 fdbe 6b63 89be 2fc1 4ebf
00000050: 37a7 3ebe 217c 30bf 66b3 453e ef7b 13bf
00000060: db98 16bf 4a99 b53d 10a6 2d3e 85c5 123e
00000070: e86c 0ebe f2e2 5ebf f79a 37bf 784b 28be
00000080: 1dc7 d53d 1276 48bf 7a4e 7dbe f576 f5bd
00000090: b793 d1bc a842 ed3e b222 c1be afd3 1d3e
000000a0: 0cad 3bbf b018 64be 15d7 70be 5cde fdbe
000000b0: 6940 37bd 2c76 833e 2489 62be 21cd e6be
000000c0: af33 b3be d9a5 51bf 1ee5 053e 30c2 703e
000000d0: eb8b 2fbf 1621 6abf 6518 8c3d 1bfa 6bbf
000000e0: cb0a 9fbb 73d0 06bf 4e84 b3be 0009 cebe
000000f0: 9313 7bbd 9eb1 edbd 4da8 68bd cac7 0abf
00000100: ab2f e8be e831 85bd ae0f 743e 969c 81be
00000110: dd61 9cbe 6144 983e 569a 02bf d3bb 00bf
00000120: 7cde e93e 241b 66be b18f eabd 566b f03a
00000130: 1278 f9be 7b4e 893d d0e7 b2be 0e0b 9fbe
00000140: e47e e5be 0474 25bf 7ff8 46bf 77d8 a13e
00000150: f3b1 6c3c 42f6 e4be 10e7 5d3e 3ee5 8dbf
00000160: 0209 633d 14ea 503e 1032 2cbf 2806 f1be
00000170: 2fc4 d33d 08ef e9be af36 043f c294 bcbe
00000180: 77f2 00bf 3eb8 41be 9b22 83be 6b5a 0abf
00000190: 1042 22bf 1452 fe3d a4ce 05be 8120 043f
000001a0: d374 ec3e b172 72be 173e 0bbf fe10 45be
000001b0: c77f 24be e3d7 63bf 495a 40bf 8c96 3abe
000001c0: 8574 a0bd 0306 6ebf fdd6 cdbd f8f8 e43e
000001d0: b41f 053f 7c0f fbbe 04d3 393d 2104 2c3e
000001e0: f1c7 39bd 0324 69be 42c8 ce3e e8d8 c6be
000001f0: 2ddb 7fbe 828e 4c3d 60d8 b1bf 0ccb 7fbd
00000200: e01f 4cbd 0947 013e 8391 11be 8ef4 863e
00000210: d435 903d 7771 a6bf 7771 163d 5505 d43d
00000220: a6d4 b33e fb3c 973e 829b 39bf 1940 f9be
00000230: cc1d bebb 18cf 38be 255d a23d 84de 073d
00000240: 7b2a f43d bd4e 88be 7e63 27be 886a 19bd
00000250: a34a e0be 8085 82be d725 e4bd ef71 62be
00000260: 3093 7ebe bb26 263e 3a6a 463e fb44 e7bd
00000270: c16b 31bf 8db8 0fbf 663d 05bd c551 3a3e
00000280: 9c2e e93e 86fd 2fbe d48e 5bbe 5c06 cfbd
00000290: 3e85 0e3d 4eaf 8c3f 411d 0d3e 6f17 2b3d
000002a0: cead 873e 2667 073e f7fd 0c3d 147b c0be
000002b0: 922b b33c c207 bf3e 1998 823d acdc 46bf
000002c0: 7424 12bd 9f03 1f3e 1320 a33c 2e58 47bf
000002d0: 6080 f6be 9a9f ebbd e8f8 9b3c 138f 76be
000002e0: 5fc3 b9be d817 1ebe 24d8 4fbf c721 dbbe
000002f0: e13b df3e 423e 393d 366b 313a fb86 a1bc
00000300: 96a0 9ebe 1f8d 93be d27e 0abe dc66 3c3e
00000310: d4e0 37be 87ba e9be 3bac 35bd f42d 37bf
00000320: d1b0 11bf 15d4 203d 80bd 70be 63e9 4a3e
00000330: 9390 39bf 86f0 883d 141e 09bf 2e26 6ebf
00000340: df79 8dbe 1fbc d1be 3791 9a3d b81c 8ebd
00000350: 3007 b13e b202 953d 0f1a d73d 2e16 d9be
00000360: 6141 2abf cb69 6a3b bb20 93be 4ad5 023e
00000370: cb01 793d 3266 cebe e1f7 00be d179 cabe
00000380: 922f aa3d d25e 26bf e3c6 27bf 03d1 9c3e
00000390: 3b8c 72bf abf3 e63d 6364 093e 82d8 d7be
000003a0: 62fe 28bf 04c2 6cbe fcaf 24bf 8c48 24bf
000003b0: fa1f 00bf e2c6 3bbf 3bd8 67bf e5eb 1b3e
000003c0: 006f 57be cf93 3cbf 3548 81be 79fb 283e
000003d0: 09d9 f5bc 0f6b 56bf 65c0 6bbe 8f21 f7bd
000003e0: 6f6f 6ebe 8cea 1bbf 018e 30be a9e2 ea3d
000003f0: 1c06 95be 6f05 73bd 2365 dabd ec9f 84be

fc2.bias f4 [64]
0.03104016 -0.17792854 -0.16506836 -0.18717495 0.015662549 -0.62634426 -0.096048854 -0.18794303
0.018381454 0.1859378 -0.12369756 0.8539676 -0.16150092 0.047222584 -0.3593109 1.2158611
-0.22617109 -0.289394 -0.48034072 0.58436376 0.20594078 0.16023612 0.062617555 -0.6521675
-0.40666917 -0.27387002 0.08874384 -0.09230657 0.046238456 -0.16721377 -0.56818503 -0.3353732
-0.102572896 0.03969551 0.2960861 -0.2381396 0.2157737 -0.54062706 -0.24118018 0.043721974
-0.13689557 1.5457522 0.18125442 -0.30944893 -0.35332525 -0.3617112 -0.0910619 -0.11146078
-0.3714468 -0.2994923 -0.2910562 0.23463467 0.19122252 0.06275977 -0.39673185 -0.5155019
-0.5469978 -0.14202505 -0.3104755 -0.30970663 -0.2741924 -0.147455 -0.21458794 -0.845082
00000000: ef47 fe3c e632 36be ae07 29be caaa 3fbe
00000010: bf4e 803c 1958 20bf 43b5 c4bd 2374 40be
00000020: b494 963c 7b66 3e3e 2555 fdbd 9f9d 5a3f
00000030: 7f60 25be 786c 413d 99f7 b7be 56a1 9b3f
00000040: 6599 67be 732b 94be 38ef f5be dd98 153f
00000050: 24e2 523e f014 243e a23d 803d 73f4 26bf
00000060: f136 d0be b138 8cbe 55bf b53d 3a0b bdbd
00000070: 8964 3d3d 163a 2bbe 9374 11bf 09b6 abbe
00000080: bd11 d2bd c297 223d 9998 973e deda 73be
00000090: c8f3 5c3e 8966 0abf f0f7 76be d015 333d
000000a0: 5a2e 0cbe 35db c53f c29a 393e 1770 9ebe
000000b0: 0ce7 b4be 3632 b9be a97e babd 8d45 e4bd
000000c0: 462e bebe 0e57 99be 5105 95be 1244 703e
000000d0: d6cf 433e 3288 803d 7020 cbbe eff7 03bf
000000e0: 0c08 0cbf 046f 11be a5f6 9ebe de91 9ebe
000000f0: f262 8cbe 72fe 16be f1bc 5bbe 4b57 58bf

fc3.weight f4 [4, 64]
-0.4468511 0.18844308 0.3654761 -0.2126373 0.047956754 -0.33056003 -0.32961583 -0.8144442
0.1609388 0.0021614619 0.19495864 0.28232172 0.17014141 0.31637174 0.077092946 0.26899993
0.066063315 -0.15749699 -0.35342464 0.22857963 0.37377608 0.12904626 -0.11633415 -0.18119216
-0.18866706 -0.8444181 -0.1408723 -0.019191258 0.04607218 -0.18369105 -0.08408474 -0.078879684
0.13534063 -0.11457722 0.05782179 0.061898835 0.07717521 -0.19450326 0.13963298 -0.12711641
0.08320807 0.4249966 0.18301517 0.09989627 -0.24635476 -0.3456188 0.24554415 0.21586427
-0.14894372 0.25902313 -0.6779052 0.29202622 -0.32198521 -0.030058274 0.16227446 -0.095431596
-0.48524106 0.18770243 0.18667927 0.04726172 -0.25307992 0.12828888 0.34356317 -0.16952652
0.55703026 -0.005870711 0.045133676 -0.27153865 0.07000718 -0.2249082 -0.07617906 -0.1821605
0.111888565 0.063667946 0.24645609 0.2677607 -0.078367434 0.16175057 -0.41614816 0.3239976
0.04211175 -0.12631506 -0.04716798 0.18999422 0.13986659 0.21496578 0.028212285 -0.05961108
-0.17335476 -0.027110822 0.1259489 0.18456231 0.14886145 0.03224742 -0.07649356 -0.033032496
0.09517516 -0.03435845 0.13132101 0.04784167 0.08920667 -0.16062161 0.3760673 -0.0013368549
0.22043206 0.3712456 0.052283294 0.038305093 0.12469383 -0.0772403 0.23080987 0.094205275
-0.014035305 0.24278216 0.22238424 0.1716622 -0.13056362 -0.24620506 -0.05361206 -0.08129414
-0.33715048 0.21016811 0.21779823 0.10635056 0.06426824 0.13865285 0.10233328 -0.17172778
-0.19085784 -0.036155067 -0.38886303 -0.4003744 -0.39840773 -0.1554486 -0.2555052 0.28348288
-0.32401025 0.20141697 0.061293934 0.28224257 0.34197143 -0.04112105 -0.5884518 0.43188745
-0.4209057 -0.12061737 -0.01841231 0.18853597 0.23456395 0.13532116 -0.31558305 -0.065096505
-0.20107043 -0.22190145 -0.6416024 0.12384151 0.22135392 0.20114137 -0.23554161 0.10042655
0.38184378 -0.06140724 0.26353565 0.13933249 0.2208279 0.024258792 0.2874744 0.12181163
-0.4795991 0.33628112 -0.038687807 -0.41860002 0.5439486 -0.07655067 0.1423907 0.13197115
0.07453525 -0.2881449 -0.26058275 0.11078559 -0.50264025 -0.9366039 -0.17754206 -0.18754697
-0.29903272 0.22546138 -0.16084908 -0.16405003 -0.6638119 0.16232194 -0.15371831 -0.23664038
0.32436207 0.22905366 0.49565813 -0.3947446 0.17995298 0.11991289 -0.18355927 0.26802868
0.18676361 0.1376836 0.057942785 0.0999308 -0.27103946 0.22603574 -0.332339 0.27986443
-0.6002907 -0.2946607 0.15826407 0.2471832 0.2338439 0.09755381 0.08177655 -0.20510162
-0.1447659 -0.07295367 -0.32741237 0.13145699 0.19675964 -0.4496693 -0.22610837 0.10774249
-0.010869792 -0.7161874 0.13230537 -0.19265231 0.07175488 -0.03288698 0.2664757 -0.30932364
0.19213277 0.48362872 0.137719 -0.6929963 0.41387925 0.05495969 0.15514861 -0.44139832
-0.03130128 -0.011928688 -0.23982076 0.056801613 -0.7591533 0.06476571 0.018010259 0.10486321
-0.6576846 0.17034775 0.23355787 -0.09493733 -0.5600301 0.1859817 -0.341425 -0.43079156
00000000: abc9 e4be 39f7 403e af1f bb3e 98bd 59be
00000010: 4d6e 443d 2a3f a9be 68c3 a8be 6a7f 50bf
00000020: 24cd 243e 50a7 0d3b 3da3 473e 798c 903e
00000030: 8d39 2e3e 7afb a13e e8e2 9d3d 5cba 893e
00000040: 344c 873d e446 21be 13f4 b4be c710 6a3e
00000050: 945f bf3e b424 043e 9940 eebd 708a 39be
00000060: f031 41be c92b 58bf d440 10be fc36 9dbc
00000070: 2fb6 3c3d 8219 3cbe 9f34 acbd ac8b a1bd
00000080: bc96 0a3e 76a7 eabd 8bd6 6c3d a289 7d3d
00000090: 090e 9e3d dd2b 47be f3fb 0e3e ce2a 02be
000000a0: fe68 aa3d 2899 d93e 5468 3b3e 6a96 cc3d
000000b0: 6c44 7cbe f3f4 b0be ed6f 7b3e 860b 5d3e
000000c0: b484 18be ae9e 843e 328b 2dbf 7684 953e
000000d0: 3fdb a4be c53c f6bc 472b 263e a471 c3bd
000000e0: 8471 f8be 1135 403e da28 3f3e 8195 413d
000000f0: b193 81be 295e 033e 83e7 af3e 5c98 2dbe
00000100: 8999 0e3f 185f c0bb 17de 383d 1d07 8bbe
00000110: ed5f 8f3d 564e 66be c403 9cbd 4888 3abe
00000120: d525 e53d 5764 823d fc5e 7c3e ee17 893e
00000130: 1b7f a0bd f1a1 253e 5f11 d5be 03e3 a53e
00000140: 5f7d 2c3d bc58 01be 3633 41bd d88d 423e
00000150: 3039 0f3e fd1f 5c3e 731d e73c bf2a 74bd
00000160: e983 31be 8417 debc c0f8 003e e7fd 3c3e
00000170: 236f 183e df15 043d a8a8 9cbd 154d 07bd
00000180: 32eb c23d 72bb 0cbd 0479 063e a1f5 433d
00000190: fdb1 b63d fe79 24be e58b c03e 6839 afba
000001a0: f1b8 613e e713 be3e 0227 563d cde5 1c3d
000001b0: 7b5f ff3d 2a30 9ebd 6c59 6c3e b2ee c03d
000001c0: 56f4 65bc e39b 783e b2b8 633e 37c8 2f3e
000001d0: 78b2 05be 2e1d 7cbe 5298 5bbd 8b7d a6bd
000001e0: fd9e acbe 4f36 573e 8006 5f3e 53ce d93d
000001f0: 119f 833d 03fb 0d3e 1c94 d13d 68d9 2fbe
00000200: 3d70 43be 5617 14bd 0e19 c7be e0fd ccbe
00000210: 19fc cbbe eb2d 1fbe 94d1 82be ab24 913e
00000220: ace4 a5be 4040 4e3e 590f 7b3d 1982 903e
00000230: e116 af3e 8c6e 28bd c7a4 16bf 5a20 dd3e
00000240: f480 d7be 3d06 f7bd 6ad5 96bc 930f 413e
00000250: 8831 703e a191 0a3e 1a94 a1be 5151 85bd
00000260: 68e5 4dbe 223a 63be 0e40 24bf 9ea0 fd3d
00000270: 9aaa 623e 01f8 4d3e d231 71be 6fac cd3d
00000280: 0781 c33e 2886 7bbd 25ee 863e 2dad 0e3e
00000290: b620 623e 60ba c63c d82f 933e 6078 f93d
000002a0: 038e f5be 0a2d ac3e 1b77 1ebd be52 d6be
000002b0: 3740 0b3f 99c6 9cbd dece 113e 7223 073e
000002c0: f0a5 983d ba87 93be 1a6b 85be 8ee3 e23d
000002d0: 08ad 00bf 46c5 6fbf 96cd 35be 500c 40be
000002e0: d11a 99be 59df 663e 9fb5 24be bbfc 27be
000002f0: 94ef 29bf b937 263e 5568 1dbe db51 72be
00000300: c912 a63e 0b8d 6a3e e7c6 fd3e f71b cabe
00000310: 9845 383e e494 f53d f6f6 3bbe 0e3b 893e
00000320: f63e 3f3e eefc 0c3e 6a55 6d3d 85a8 cc3d
00000330: afc5 8abe ea75 673e 5628 aabe 644a 8f3e
00000340: a7ac 19bf c4dd 96be fa0f 223e 981d 7d3e
00000350: c674 6f3e 4bca c73d 777a a73d 2906 52be
00000360: 833d 14be bc68 95bd 98a2 a7be a99c 063e
00000370: 5c7b 493e 0e3b e6be f488 67be 18a8 dc3d
00000380: 3617 32bc 0f58 37bf 0f7b 073e a646 45be
00000390: 39f4 923d 7fb4 06bd 816f 883e ab5f 9ebe
000003a0: 74be 443e 2f9e f73e 3606 0d3e 3568 31bf
000003b0: fbe7 d33e 691d 613d 47df 1e3e f6fe e1be
000003c0: c535 00bd 8b70 43bc 9393 75be cfa8 683d
000003d0: df57 42bf e2a3 843d 408a 933c 86c2 d63d
000003e0: 055e 28bf a46f 2e3e cb29 6f3e 816e c2bd
000003f0: 225e 0fbf fd71 3e3e 42cf aebe b690 dcbe

fc3.bias f4 [4]
1.1710573 1.0913268 1.1027966 1.0490081
00000000: 35e5 953f 99b0 8b3f 7028 8d3f e645 863f
