weights/DQN_model_weights_C5000.pth (torch_old, 28405 bytes, 6 tensors)

fc1.weight f4 [64, 37]
000000 4f f0 13 bf 95 c9 0d 3e 0d 1b d4 3d 88 c9 36 bc
       -0.57788557 0.13846429 0.10356722 -0.011156447
000010 72 dc 13 bf 4d 1d a4 bf 5e d0 9e 3e e1 8e 98 3e
       -0.5775825 -1.2821442 0.31018347 0.29796508
000020 cf 5d 8e be 47 89 f2 be 41 44 96 be b3 86 1d 3e
       -0.27805945 -0.4737036 -0.2934895 0.15383415
000030 f0 15 c3 3b d1 a8 ec 3b 05 de cd 3c 75 0a 30 bf
       0.005953543 0.007222273 0.025130281 -0.68765956
000040 c9 0f 88 3e 93 63 c9 3e d7 a8 12 3e de 3c 11 bf
       0.26574543 0.39333782 0.1432222 -0.567335
000050 69 63 e8 bd 63 de 2e 3e 4f a2 a9 3e 2e e6 73 3e
       -0.11347086 0.17077021 0.33131644 0.23818275
000060 f9 e4 4e 3d 62 5e fd be 61 93 04 bd fc 26 a8 3e
       0.050511334 -0.4948607 -0.032367114 0.32842243
000070 d8 bc 87 be 9f 66 54 bf 05 2e a5 bf a3 0f da 3e
       -0.26511264 -0.8296909 -1.2904669 0.42590055
000080 77 d6 04 3d 63 59 13 3e 2a d6 88 be 2c 80 ce 3d
       0.032431092 0.14389567 -0.26725894 0.100830406
000090 f7 dc 82 bd 83 bb a9 3d 67 6d ff 3d 8a a3 e3 3b
       -0.06389802 0.08287718 0.12472039 0.0069469856
0000a0 00 72 95 3d 6a c9 28 3e ac 9b 82 be 87 47 8d bd
       0.072971344 0.16483083 -0.25509393 -0.068984084
0000b0 5a b9 24 3d 58 93 12 3c 4a 1b e0 3e 17 52 28 bc
       0.040215828 0.008946262 0.4377082 -0.010273478
0000c0 ab d3 1f be d9 ad 86 bd e0 ae 1a 3e c0 ea 20 bc
       -0.15608089 -0.065761276 0.15105772 -0.009821594
0000d0 bc 38 0b 3e ec dc 24 bd a8 fb b0 bd 55 f2 4d 3e
       0.13595861 -0.04024975 -0.086417496 0.20111974
0000e0 2b c7 a6 3e 53 fb 37 be 7d a2 09 be 57 eb 01 be
       0.32573828 -0.17966966 -0.1344089 -0.12687431
0000f0 95 df 29 be 54 84 39 3e 90 05 cf bd 0d 60 62 bd
       -0.16589196 0.18116885 -0.10108483 -0.055267382
000100 49 db 60 bd 71 95 82 3c 13 fa 60 bd 8e 72 0d 3e
       -0.054896627 0.0159404 -0.05492599 0.1381323
000110 31 9a 2b 3a 82 91 89 bd ac a5 72 3d 40 e1 27 be
       0.00065461086 -0.067172065 0.05924003 -0.1639452
000120 4a ae 5b 3e 06 a3 c1 3d 37 03 53 3e 40 39 18 be
       0.21453205 0.094549224 0.20606695 -0.14865589
000130 20 de 10 3e 36 6b 97 bd c7 33 d1 bd 9c 60 a4 bf
       0.14147234 -0.07393496 -0.10214954 -1.2841983
000140 bf 38 6d 3d 01 7d d3 3e 37 9a 3c bf b7 79 aa bf
       0.057915445 0.41306308 -0.73672813 -1.3318394
000150 43 56 5f 3e 53 5b 72 3d ed 7a ac be bc 8e 36 bd
       0.2181025 0.059169125 -0.33687535 -0.044569716
000160 93 1d 6b 3e 82 78 c4 3e 78 f5 4b be 03 e8 a1 bd
       0.229605 0.3837319 -0.19917858 -0.07905581
000170 c7 e3 a6 bd ef e5 0c be f2 63 11 bf 93 f9 6c 3e
       -0.08148914 -0.13759588 -0.5679313 0.2314208
000180 f4 65 a6 3e 35 0b 81 bc 57 e5 0b be 30 d1 36 be
       0.3249966 -0.015752414 -0.13661705 -0.17853236
000190 86 97 14 3e 86 3b 76 bd 75 1c 29 3e 0a 88 1c 3e
       0.14510927 -0.06011536 0.16514762 0.1528627
0001a0 43 9b 57 bf d7 f1 ce 3e cb 09 84 3c 65 da 54 bf
       -0.84221286 0.40418884 0.01611795 -0.83145744
0001b0 67 db 13 bf ab 06 57 3d f0 94 5b bd 31 3b 3a 3e
       -0.57756656 0.052496593 -0.053608835 0.18186642
0001c0 92 dd e6 be 0d 95 5f be 0b e5 27 bf 85 02 f5 bf
       -0.4509092 -0.21834202 -0.65583867 -1.9141394
0001d0 d3 fb 21 3e f7 7f 94 bd 1f 9c 2b bf 84 15 d8 be
       0.1581872 -0.0725097 -0.67035097 -0.42203915
0001e0 e9 a4 2b c0 bb 72 89 be 80 57 fa 3e 57 58 0a bf
       -2.6819403 -0.26845345 0.48894882 -0.54041046
0001f0 6c f0 5d bf 5b f1 0f bf 7f 47 fb 3d fa 3d 3c bf
       -0.8669498 -0.56227654 0.12269496 -0.7353207
000200 16 6b 66 bf 92 46 0d bf b8 7f b8 be f5 f3 02 be
       -0.9000715 -0.55185807 -0.36034942 -0.12788375
000210 8e 7d 9f 3d e3 65 ac 3c e1 5e 15 bf 4e 53 e5 bf
       0.077876195 0.021044677 -0.583479 -1.7916048
000220 00 ec b7 3d d1 c4 7c be 94 9b 1c be f4 89 f9 be
       0.0898056 -0.24684455 -0.15293723 -0.48738062
000230 ad e7 de bf cb 7a 87 3e 14 fb d7 be a6 a6 3d bf
       -1.7414452 0.2646087 -0.42183745 -0.7408241
000240 90 ad dc be c3 da 55 c0 d2 f6 71 3c 63 4e ce bd
       -0.43101168 -3.3414772 0.014768319 -0.10073545
000250 6f 46 f8 bd fd 68 e5 3d a1 9c 26 bc 41 5f 9f be
       -0.12122809 0.112016656 -0.010169179 -0.3112736
000260 38 aa ae bd a3 6a e2 3d a6 8e 40 be ea ed 60 bf
       -0.085285604 0.110554956 -0.18804416 -0.8786303
000270 c3 e6 96 be f8 ed 17 c0 46 d0 96 3e db 2e 20 be
       -0.29472932 -2.3738995 0.29455775 -0.15642874
000280 87 7c 01 be be 85 50 be cb ed d6 bf df 6d 65 3d
       -0.1264516 -0.20363519 -1.6791319 0.056012984
000290 49 bf 7a be 36 95 27 be 9b 54 ff 3c ac f4 32 3e
       -0.24487032 -0.16365513 0.031168273 0.17476147
0002a0 6f f7 37 3e 96 c6 9c 3e 1c b9 04 3d b7 16 1d be
       0.17965482 0.3062026 0.032403097 -0.15340696
0002b0 0a e7 21 be f7 11 29 bd ea d6 11 3e ef c3 da bd
       -0.1581079 -0.0412769 0.1424214 -0.106819026
0002c0 79 d5 98 3e a8 ac 45 3e 19 7e 9d bd 51 14 8c 3e
       0.29850367 0.19304144 -0.07690067 0.2735925
0002d0 77 dc 14 bf 6d b5 57 bf 0b bc df 3e 68 54 ce 3d
       -0.581489 -0.8426121 0.43698153 0.10074693
0002e0 93 dc 33 3c 0c 74 09 be 16 65 a9 be ab 5d b5 3e
       0.010977882 -0.13423175 -0.33084935 0.35423025
0002f0 71 5a 30 bd cc f8 54 3e c6 ab 02 be 90 7e 7a 3f
       -0.043055 0.20798033 -0.12760839 0.9784937
000300 8c 34 39 bf fb 68 9a 3d 7e 41 f9 bf 87 22 5c be
       -0.72345805 0.07539555 -1.9473112 -0.21497546
000310 dc e3 ef be 22 0f 2b bf 1f 2d 21 3e d3 43 85 bf
       -0.4685353 -0.66819966 0.15739869 -1.0411323
000320 bf bd b6 3d e7 21 ae bd 0c 0d c9 be 63 c7 25 be
       0.0892291 -0.0850256 -0.39267766 -0.16189341
000330 48 2e e3 be 5a f3 2c bf 0c e7 c9 3e c2 94 df be
       -0.44371247 -0.67558825 0.39434087 -0.4366818
000340 f5 a7 62 be ba f8 f2 be 5b 50 0a 3d 6a b3 97 be
       -0.22134383 -0.47455388 0.03376804 -0.2962907
000350 3f ae 2a bf f8 eb 7e 3e dd ee c4 bb 5a af a5 bc
       -0.6667213 0.24894702 -0.00600992 -0.020225216
000360 c9 9c 1a bf 4d f8 29 bf 39 de 7c bf 35 80 22 c0
       -0.60395485 -0.663945 -0.98776585 -2.5390751
000370 42 be 7a 3d 66 3b e8 bc 74 63 93 be d7 69 97 bc
       0.0612166 -0.028348636 -0.28786814 -0.018483086
000380 9b 92 e4 3d 10 a4 a1 bf af 07 c8 3e 4b d7 bd bf
       0.11160775 -1.2628193 0.39068362 -1.4831327
000390 ef 56 b7 bc 2f 85 d2 3d 06 b0 89 bf be 3c bb 3e
       -0.02238032 0.10279309 -1.0756843 0.3656978
0003a0 11 5b 8f 3e 74 73 3f bf 58 7b 45 3c 5c 08 a4 bf
       0.27999166 -0.7478554 0.012053333 -1.2815051
0003b0 1b a0 29 be 06 47 91 be 56 d5 0d bf 51 31 1a be
       -0.16564982 -0.283745 -0.5540365 -0.15057875
0003c0 5a a1 d1 bd 8e 94 cb bd dd 21 97 3e 8f 9d 38 be
       -0.102358535 -0.09940444 0.29518023 -0.18028854
0003d0 2d da a1 bf a9 5a 38 bf e2 46 01 3f 6c 50 89 3e
       -1.2644707 -0.72013336 0.50498784 0.2681917
0003e0 61 af f2 3b 39 02 94 bf c9 fd b1 bf 71 6d 68 3d
       0.0074061607 -1.1563178 -1.3905574 0.056744996
0003f0 65 4b 53 bf ee de 19 be 7f b7 bd be 2d 9e 8c 3d
       -0.8253692 -0.15026447 -0.3705406 0.06866107

fc1.bias f4 [64]
000000 61 44 96 3d 9c 17 a6 be 67 29 84 bd b8 8e 4f 3d
       0.07337261 -0.32439888 -0.06453209 0.050673217
000010 12 cf cb bd 71 2f 19 3d ca a0 de bd 14 34 21 3d
       -0.09951605 0.03739876 -0.10870512 0.039356306
000020 ec 9d 9f 3e b7 18 91 bd dc 18 90 3c 22 59 8f 3e
       0.31175172 -0.07084792 0.017589979 0.2799769
000030 e6 a4 08 3e 0b 5b 4b 3e 2f 16 c5 bd de 6d d2 be
       0.13344154 0.19858949 -0.09623372 -0.41099447
000040 31 9a 60 3c e1 9c fa bd 33 9b 0d be 2e c6 44 be
       0.013708637 -0.122369535 -0.13828735 -0.19216225
000050 e7 ec 46 bd 17 d7 2b 3e 1e f3 05 3e aa f2 89 bd
       -0.04856577 0.16781269 0.13081023 -0.067357376
000060 c8 72 c0 bc 2c d4 72 3d 07 9a 09 be cf 60 d9 be
       -0.023492232 0.059284374 -0.13437663 -0.42456672
000070 cd 58 a3 3e 26 53 71 3e 54 d0 a4 3e 9a 27 92 be
       0.31903687 0.23566875 0.32190192 -0.2854584
000080 19 99 79 bd d3 dc 58 3b c7 6e 1b be d5 52 ff bd
       -0.06093702 0.0033090606 -0.15178977 -0.12466971
000090 59 0e 70 be 71 f4 a5 3c 7f 61 f5 bd d4 23 89 be
       -0.23442973 0.02025816 -0.119814865 -0.26785147
0000a0 5e c4 4c be aa d2 ba 3c c8 f4 3f be 68 02 8c 3b
       -0.19996783 0.02280553 -0.1874572 0.004272748
0000b0 a6 d8 7e bd 5b 20 81 be e4 60 c8 bd 47 7b a0 bd
       -0.06221833 -0.25219998 -0.097841054 -0.07836013
0000c0 98 64 88 be 16 6a 62 3e f6 96 ce bd ec 10 32 3e
       -0.26639247 0.22110781 -0.10087387 0.17389268
0000d0 75 b7 66 be ed 78 45 3d 8a 26 b1 bd 53 f7 08 be
       -0.22530921 0.048211027 -0.08649929 -0.13375597
0000e0 a1 a3 ed bb ed d1 c1 3c 7a d5 fc 3c 84 6b 79 bd
       -0.007252172 0.02365967 0.030863512 -0.06089355
0000f0 bd 77 ad bd e2 42 81 3e 28 39 a6 bd 97 0f b5 bb
       -0.08470104 0.2524634 -0.081163704 -0.00552554

fc2.weight f4 [64, 64]
000000 2a 9e 81 be 34 b3 3d be 55 08 11 be c6 17 ba be
       -0.25315982 -0.18525392 -0.14163335 -0.36346263
000010 4b 35 a4 3c 16 21 26 bd dc 9e de bb 1b 8a 90 3e
       0.020044943 -0.040558897 -0.00679384 0.28230366
000020 57 e0 06 3e 44 3f 36 3e 11 1a 89 3d 8b e7 b6 be
       0.13171516 0.17797571 0.06694425 -0.35723528
000030 23 6d a3 be e7 56 8c be 67 81 9e 3e 66 61 14 be
       -0.31919202 -0.2741005 0.309581 -0.1449028
000040 c5 55 95 3d 8b 3c f0 be 59 36 0f bf 69 4c a3 3e
       0.0729175 -0.4692119 -0.559423 0.31894234
000050 ae e3 84 be 13 52 7a bf bd 6e 1d 3e 6d 0a 9b 3d
       -0.25954956 -0.97781485 0.15374275 0.07570348
000060 09 c5 93 be 51 48 53 be 1b a8 72 3e 2f 6d 41 bd
       -0.28861263 -0.20633055 0.2369694 -0.047223266
000070 7c a7 b7 be 2d 41 30 3e f8 69 83 be fa 54 f4 bd
       -0.35869968 0.17212363 -0.25666785 -0.119302705
000080 dc d4 50 be c4 5f a5 3e bd 02 da bc 49 e7 26 bd
       -0.203937 0.32299626 -0.026612634 -0.040747914
000090 37 38 1f 3e 43 d9 db 3e 7d d3 7b 3d fd 04 d3 bd
       0.15548788 0.42939195 0.061480988 -0.10303686
0000a0 d4 20 84 3d 75 76 b2 bd bd 64 27 3e 05 15 98 bd
       0.06451574 -0.08714 0.16347022 -0.07425884
0000b0 35 08 7d 3e 1a 0f 3a bd a4 14 cc be 22 b9 2b 3d
       0.24710162 -0.04542456 -0.39859498 0.041924603
0000c0 55 12 03 3e 01 52 cb bd dd 25 84 be 7d b9 c3 3d
       0.12799962 -0.099277504 -0.25810137 0.095568635
0000d0 4d b3 a6 bd 8d d5 c6 3d 6d 44 13 3e 77 d5 97 3e
       -0.08139668 0.097087 0.14381571 0.29655048
0000e0 83 d9 8e 3d ec f9 f5 3d 22 05 da be b0 59 2c 3e
       0.06975081 0.120105594 -0.4258204 0.16831088
0000f0 62 f7 de 3e c4 75 05 be b1 f3 2d be 92 87 e7 3c
       0.43548113 -0.13033205 -0.16987492 0.028262887
000100 09 03 6d 3d 51 9a 9d bd bf cf 46 3e f1 81 24 3d
       0.057864223 -0.07695449 0.19415186 0.040162984
000110 77 b9 b2 3e 60 31 92 be 06 e6 42 be 79 43 06 bf
       0.34907123 -0.28553295 -0.1903306 -0.52446705
000120 f5 89 ee be 66 7d ed be 7a fe b2 bc 9c fb 38 3e
       -0.46589628 -0.46384734 -0.02184986 0.18064731
000130 d3 06 1a be 88 e6 ce 3e 84 0f 00 3f 59 5a c5 3e
       -0.15041666 0.40410256 0.50023675 0.38545492
000140 22 e0 02 be 43 1e bd 3d d7 c0 9e be 9b a8 f4 bd
       -0.12780812 0.092342876 -0.310065 -0.119462214
000150 ba db 14 bf 4f 6d 63 be 72 90 b9 3d e6 4d bb be
       -0.58147776 -0.22209667 0.09060754 -0.3658287
000160 e8 4f b4 3d 69 34 e8 3c 73 1f 2e 3e 11 fc 8f bd
       0.088043034 0.028345304 0.17004184 -0.070305
000170 7b 16 19 3f b4 08 ba be 12 d3 3a be 1e dc 8b 3e
       0.5979993 -0.36334765 -0.1824458 0.27316374
000180 a6 a3 4d bb 9f 76 9f be ef 42 00 3e 2a 1a bf bd
       -0.003137806 -0.31145188 0.12525533 -0.09331162
000190 fc e0 23 3e 52 0d 0f be 84 23 8d 3e 84 59 a8 3d
       0.16003793 -0.13969925 0.2756616 0.08220199
0001a0 b4 b2 1e 3e 15 ea 66 3e 85 0f 0e bf 68 1e 24 3e
       0.15497857 0.22550233 -0.5549243 0.16027224
0001b0 84 2f 7e 3d ac b7 45 bd 44 1f 56 be 45 8c c9 bd
       0.062057033 -0.048270866 -0.20910364 -0.098412074
0001c0 b1 3b b1 3d bd 19 9c 3d 29 cc 5f 3e 87 e4 f3 3d
       0.08653963 0.07622097 0.21855225 0.119088225
0001d0 d2 d6 55 3d d6 4b 09 3f 98 3d 11 3e 88 44 f9 be
       0.05220682 0.5363134 0.14183652 -0.48685098
0001e0 bc 69 cd be 23 53 b5 be e9 d2 02 3f b7 df b6 bd
       -0.4011973 -0.3541499 0.51103073 -0.08929389
0001f0 ca 94 27 bf 22 5d 0c be 51 5e 7a 3c 8f 0c a5 3a
       -0.6546141 -0.13707402 0.015281276 0.0012592244
000200 8b ee c0 bd 9a e9 e4 bd 46 56 0d bf fc af 4a be
       -0.094204985 -0.111773685 -0.5520977 -0.19793695
000210 04 04 15 be f3 79 30 3e 13 7c 1a 3e 4a d0 25 be
       -0.14552313 0.1723402 0.15086393 -0.16192737
000220 19 85 5f bc 11 6d b6 be 91 80 ca be 75 44 64 3d
       -0.013642573 -0.35630086 -0.39551213 0.05572935
000230 6b 62 1f 3e ad e1 dc 3c b5 4a a7 3e 20 10 bb bd
       0.15564887 0.02696308 0.32674184 -0.09133935
000240 2b c8 83 be 85 76 90 3b de d9 41 3e c6 91 4c be
       -0.25738654 0.00440866 0.18930766 -0.19977483
000250 e9 f5 7b be e1 f1 c1 3d 26 ba f7 3c 40 c6 04 bf
       -0.24605526 0.09469963 0.03024013 -0.51865005
000260 bf be 1a bc e0 ff 0b 3f 7d bb c6 3e 56 e6 11 be
       -0.0094448915 0.5468731 0.38814917 -0.14248022
000270 e9 24 6c be 6a 09 c8 3e 1e 17 2b be 17 0f 96 bd
       -0.23060955 0.39069682 -0.16708037 -0.07327097
000280 62 21 e7 bd 5c c6 18 be e4 92 49 be 7b eb 64 3e
       -0.11285664 -0.14919418 -0.1968494 0.22355454
000290 82 d9 cc bd 5f 40 a5 be 9e 65 7b 3d cf 10 c3 3a
       -0.10002424 -0.32275674 0.061376207 0.0014882329
0002a0 5a 87 0a 3e 4a 97 ef bc 2d 59 ed 3d 27 ae 54 be
       0.13528195 -0.029246945 0.115892746 -0.20769559
0002b0 8b 4c 4f 3d 3a 63 d6 bd 0f 90 2e be f3 59 33 be
       0.050610106 -0.10468145 -0.17047141 -0.17514782
0002c0 d2 cd c0 bc 5f a0 86 be 85 1e 45 be 3e 2e 0f be
       -0.023535643 -0.26294228 -0.19249924 -0.13982484
0002d0 a1 fb 91 bd 92 0d 77 3d cd c0 85 be 07 42 64 bd
       -0.071280725 0.060315676 -0.26123658 -0.05572703
0002e0 20 e8 d6 bd 1f 4c ec 3c e1 ea e5 3e 54 67 6c 3d
       -0.10493493 0.028844891 0.4490576 0.05771573
0002f0 09 f1 c2 be 0b 88 70 3e cb a6 4a 3e 1e 96 85 3d
       -0.3807452 0.23489396 0.19790189 0.06522773
000300 02 48 61 bf 52 e4 24 bf e3 74 82 bf b3 64 07 be
       -0.880005 -0.6441089 -1.0191921 -0.13222007
000310 bd e1 b3 3e 4b 70 93 be 38 ff e2 3d 58 95 18 3e
       0.35133162 -0.2879661 0.11083835 0.1490072
000320 96 5d 10 bf e3 bd 42 bf f5 df 08 3e dd 4e a3 bd
       -0.563928 -0.76070994 0.13366683 -0.07974026
000330 1f 35 ee 3e 70 a4 bd be 67 f4 20 3f e5 e3 dc bd
       0.46524903 -0.37039518 0.6287293 -0.10785655
000340 e5 13 9e be 8d de da be 57 1c 5f bf 02 62 96 bf
       -0.30874553 -0.42747918 -0.8715262 -1.174866
000350 ef 1b 24 3f ff ff 85 be c7 8f a3 be 87 75 17 bd
       0.64105123 -0.26171872 -0.3194563 -0.036977317
000360 25 ad 2f 3f a5 a4 41 be d4 58 41 3d e0 bf 29 bf
       0.6862357 -0.18910463 0.047203854 -0.66308403
000370 0f 4d 0a 3f 3f f5 0f be fb b6 54 3f 5a 29 34 bf
       0.5402383 -0.14058398 0.83091706 -0.703756
000380 ee 6c 1a bf 21 3b 39 be 7e 25 61 bf f2 39 2e 3f
       -0.60322464 -0.18088962 -0.87947834 0.6805717
000390 e9 51 ce be 71 11 d1 be 00 68 e0 be 36 2d 87 bf
       -0.40296867 -0.4083362 -0.43829346 -1.0560672
0003a0 a6 02 15 bf 67 a7 5e 3e fd 05 7d be 99 11 d4 3a
       -0.58207166 0.21743546 -0.24709316 0.0016179561
0003b0 8a d1 bc be 03 71 e8 3d ad 3e ce bd 44 cb b6 3e
       -0.36878616 0.1134968 -0.10070548 0.35701954
0003c0 58 e3 fe be d5 14 c0 3d 80 90 b2 3e c0 6e c3 be
       -0.49782825 0.093789734 0.3487587 -0.38170433
0003d0 33 c2 f0 be 2a 87 d7 be 7c 50 e2 be 28 35 cf bd
       -0.47023162 -0.4209531 -0.4420203 -0.101175606
0003e0 64 e1 4c 3e 59 97 d3 3d 78 2c 9c 3c 29 f0 a5 3e
       0.20007855 0.10331602 0.019064173 0.3240979
0003f0 d6 a6 60 be ea c2 d3 3e 17 65 e5 bd 2b 0b e2 bd
       -0.21938643 0.41359645 -0.11200922 -0.11037286

fc2.bias f4 [64]
000000 f5 02 6b 3e a9 03 ab be 55 f2 ba 3e 11 f7 91 3c
       0.22950347 -0.3340123 0.3651301 0.017818006
000010 74 bd 07 bd cf cc bf 3e ff 65 aa 3d 83 6b cb bd
       -0.03313966 0.37460944 0.083202355 -0.099326156
000020 5d 9f 1b 3d 19 b2 93 3f 8b ce 58 bd 0b 54 5b be
       0.037993778 1.1538726 -0.05293135 -0.21418779
000030 24 2e ef be e0 d2 f6 be 05 2f f9 be 3a 67 23 bd
       -0.4671489 -0.4820776 -0.48668686 -0.039893366
000040 82 2a 07 bf df 3c 76 be 47 96 c9 bc 71 69 ed bd
       -0.52799237 -0.24046658 -0.02460779 -0.11592377
000050 e1 1a a8 3e 8b d7 16 3e 89 1d 18 bf 38 0f 36 be
       0.32833007 0.1473066 -0.5942007 -0.17779243
000060 7b 64 2f bf 69 14 30 3d 25 67 e5 3d b0 e4 f6 be
       -0.68512696 0.042988215 0.11201314 -0.4822135
000070 fd 23 9b be 47 5d 3d 3f d1 ea 7b be 36 40 58 be
       -0.30300894 0.73970455 -0.24601294 -0.21118245
000080 40 9a 12 bd 8e f4 f4 3e 5b 40 76 be 03 82 bb be
       -0.035791636 0.4784283 -0.24047987 -0.3662263
000090 4d 07 c4 3c 8f 77 b4 be 5e 5f ec 3d 6f c9 88 bd
       0.023929263 -0.35247466 0.11541627 -0.066790454
0000a0 4a 1f a4 be 19 5a bc 3f 47 df 11 3d 45 77 f2 be
       -0.32055122 1.4714996 0.035613324 -0.4735662
0000b0 68 73 ae bd a2 27 e8 be 73 be 8a 3f f2 e9 c7 be
       -0.08518106 -0.45342737 1.083937 -0.39045674
0000c0 3e d3 de bd f1 2e 78 be a2 19 01 bf 09 0c a9 3f
       -0.10880135 -0.24236657 -0.5042974 1.3206798
0000d0 5e 20 26 be 9e 91 ab be 31 0c 28 3d 26 61 2b bf
       -0.16223285 -0.33509535 0.04102725 -0.6694511
0000e0 b0 1c 29 be 91 15 b4 be ca 82 06 be ba e7 93 be
       -0.1651485 -0.35172704 -0.1313583 -0.2888773
0000f0 de 30 1f be 0a ac ad 3e 03 9a 96 bd 7f 40 d5 be
       -0.15545985 0.33920318 -0.07353594 -0.4165077

fc3.weight f4 [4, 64]
000000 f1 ff 5a 3e a1 a9 a8 3d 9d 44 1d 3e 8b 89 99 3d
       0.21386696 0.08235479 0.15358205 0.07496937
000010 32 a2 12 3e ee 8d 23 be 22 f2 3b 3e 68 0e 20 bf
       0.14319685 -0.1597211 0.18354085 -0.6252198
000020 5c a3 03 3f 69 2c c0 3e c8 34 4e bc d9 4d 7e 3e
       0.5142114 0.37533882 -0.012585826 0.24834384
000030 8f 0c c5 be 50 da 37 3e 2f 2e 2d be a1 0d cd 3e
       -0.38486144 0.17954373 -0.16912149 0.4004946
000040 44 e3 b6 3d d6 21 8f bd 78 f8 bf 3e 4b 18 90 3e
       0.08930066 -0.069888756 0.37494254 0.28143534
000050 85 25 64 3d 06 fe 8d 3e f6 52 45 be 94 6b 97 ba
       0.055699844 0.27732867 -0.19269928 -0.0011552447
000060 fa e9 22 be d7 ea 58 be af 1e b8 bf 8d 96 23 be
       -0.15909567 -0.21183334 -1.4384364 -0.159754
000070 f7 91 2e be f7 ef 2a 3e 37 4f 3b bf 28 02 26 3d
       -0.17047869 0.16693102 -0.7316775 0.0405294
000080 f9 1a ed 3c fb 59 38 3e 72 66 2b bf 67 c8 61 3e
       0.028943526 0.18003075 -0.66953194 0.22049104
000090 d8 84 ac 3e 30 a1 6f 3d e8 a4 9b 3e 7b 5e d4 3d
       0.33695102 0.05850333 0.3039925 0.10369583
0000a0 b9 60 81 be a7 ea b8 3e c5 76 7e 3d f0 69 5b be
       -0.25269106 0.36116526 0.062124986 -0.2142713
0000b0 43 ee d0 3e 3d 26 ef 3d 41 ef b3 3e ec 94 9d 3e
       0.4080678 0.11677215 0.35143474 0.3077768
0000c0 30 f9 a7 3d c1 79 42 bf eb 7f 89 3e a2 3c c2 3e
       0.082018256 -0.7596703 0.26855406 0.37936884
0000d0 39 5a f1 3b b9 69 fc bd 52 52 11 3e 42 0d 63 be
       0.0073654917 -0.123248525 0.14191559 -0.22173026
0000e0 4f 0a 48 bf 2f 51 2c be eb 3b 13 3f 7a 5f 86 3e
       -0.7814073 -0.16827844 0.575133 0.26244718
0000f0 96 b9 80 be 67 a3 60 3d 0e 71 43 3e 61 b5 2a be
       -0.2514159 0.054843333 0.19086096 -0.16670753
000100 d0 51 5d 3e a3 7e 46 bd 60 09 d2 3d 6f c6 a9 3d
       0.2161324 -0.048460614 0.102556944 0.08289801
000110 64 cd 7d 3e a1 d0 51 3e 07 3a 93 3e d5 36 f9 3d
       0.24785382 0.20489742 0.2875521 0.121686615
000120 75 69 04 3f 30 a0 a0 3e d5 86 3d bc 10 86 01 bd
       0.51723415 0.31372213 -0.011567791 -0.031621993
000130 65 1f 65 bd 2f 7e a4 3e ce 29 fd bd f8 a8 8f 3e
       -0.055938143 0.3212752 -0.12361489 0.280586
000140 93 27 81 3e ae db a1 bd 3d eb 0e be ba e4 23 3f
       0.25225505 -0.07903229 -0.13956924 0.64020884
000150 95 74 a2 3d f6 41 b6 3e d9 39 a2 be c1 2c c9 3d
       0.079323925 0.355972 -0.3168476 0.09822989
000160 47 e5 96 bd a3 12 b1 be 7f ee e1 be 72 0b b1 bd
       -0.0736795 -0.3458453 -0.4412727 -0.08644761
000170 9a 31 ab 3d 50 df 70 3e a4 d1 e4 3e e0 6d a5 bc
       0.0835907 0.23522687 0.44691193 -0.020193994
000180 dc 93 63 3e 03 7e ee 3d e5 36 44 bd 71 23 80 bd
       0.22224373 0.116451286 -0.047903914 -0.0625676
000190 d9 88 cb 3e 67 2f f1 3d e5 b4 ad 3e 43 01 82 3e
       0.39752844 0.117766194 0.33927074 0.25391588
0001a0 9d 31 ad 3e fc d7 d1 3e dd 41 84 be fd b2 62 3d
       0.33826914 0.40985096 -0.258315 0.055346478
0001b0 4a 30 b2 3e 65 5d a4 be 5a f6 72 3e dc a7 c0 3d
       0.34802467 -0.32102504 0.23726788 0.09407017
0001c0 d7 cc 0b 3e 55 07 3d 3e d0 4d 97 3e 02 eb ec 3e
       0.13652359 0.18459828 0.29551554 0.46273047
0001d0 98 b9 80 3e ff 1e 86 3d 42 59 11 3e c6 cf a9 bd
       0.25141597 0.06548881 0.14194205 -0.08291583
0001e0 ea f1 10 be 67 9a 86 3e 11 4f e7 bd 9c 60 48 be
       -0.14154783 0.26289675 -0.112943776 -0.19568104
0001f0 f4 ee 1e be 9e 01 32 3e a2 aa de bd 4f 52 83 bd
       -0.15520841 0.1738343 -0.108723894 -0.064121835
000200 41 8f f3 3d 1c fa 1b be 8b fa 5c 3e 1a bd a2 3e
       0.11892558 -0.15232128 0.2157995 0.31784898
000210 8b 6b 86 3c 0f 30 12 3e 3e c1 96 3e 7a 2e 44 bf
       0.016408702 0.14276145 0.29444307 -0.7663342
000220 97 0f da 3e 37 1a 5b 3e 2f d6 d4 3d fd ed 67 3e
       0.4259002 0.21396719 0.10392415 0.22649379
000230 74 bf 7c bd 8a 55 78 3e b1 b0 4a be 91 84 a2 3e
       -0.06170602 0.2425138 -0.19793965 0.31741765
000240 62 33 a2 3e ca e5 df bd 7b 61 15 bf ad 84 7f 3c
       0.31679827 -0.10932501 -0.5835187 0.015595597
000250 74 d5 ac 3d 1c e3 92 3e 41 ff 90 be d2 e2 07 3c
       0.084391505 0.28688896 -0.28319743 0.008293824
000260 b8 2e ec bd e4 28 21 bc 0f 18 ae be ec 1a 15 3e
       -0.115323484 -0.009836409 -0.3400273 0.14561051
000270 08 d9 6e 3c 66 69 2e 3e 78 83 7e be d6 98 cf be
       0.0145781115 0.17032394 -0.24854839 -0.40546292
000280 1a 84 8d 3e 4f dc 14 be b3 9f a7 3e d1 7b ef 3e
       0.27639848 -0.14537166 0.32739028 0.46774152
000290 b4 90 7a 3e 70 9f 51 bf 9d 96 9d 3e 5a d0 a0 3e
       0.24469262 -0.8188391 0.3077897 0.3140896
0002a0 c6 ed 9b be 9d 02 cc 3e 1f 7b f3 be a1 82 3a be
       -0.30454844 0.39845744 -0.4755487 -0.18213893
0002b0 b0 55 ac 3e 96 1c 8e be a2 55 81 3e 4c f1 b0 bc
       0.33659124 -0.27756184 0.25260645 -0.021599434
0002c0 ae 57 b1 3e 99 a4 8a 3e 5f 17 68 3e 55 63 e5 3e
       0.34637207 0.27078703 0.22665165 0.44802347
0002d0 24 7e d8 3e ec ed aa be 0f f0 87 3e a0 10 56 be
       0.42283738 -0.33384645 0.26550338 -0.2090478
0002e0 f1 7b 4c bf 35 72 c6 be 26 a5 18 be f1 3e f9 be
       -0.7987662 -0.38759008 -0.14906749 -0.48680833
0002f0 0f c1 3b 3e 00 49 ad bc 9d 74 15 bf 04 44 58 bd
       0.18335365 -0.021152973 -0.5838106 -0.05279924
000300 ef 3a 30 3e 0e fa 48 3e 89 1a 06 3e 7a bc 66 bf
       0.17209981 0.19626638 0.1309606 -0.9013134
000310 6e 20 22 be ab 18 ec 3d dc 31 21 3d d0 bd b8 3d
       -0.15832683 0.115281425 0.03935419 0.09020579
000320 de 93 de 3e f3 ad af 3e 48 01 a5 3e df 1c 15 be
       0.4347219 0.343124 0.3222754 -0.14561795
000330 63 12 34 be 95 97 8e 3c 3c 9d 45 be 04 7f 97 3e
       -0.17585139 0.017406264 -0.19298261 0.29589093
000340 4e 51 d1 3e 20 7f 2d bd cb f7 8b 3e f5 69 00 3f
       0.40882343 -0.042357564 0.2733749 0.5016168
000350 c0 dd 13 3e ec 76 4d 3e 1b 2e 4a bd d7 5a a9 3d
       0.1444006 0.20064896 -0.049360376 0.082692795
000360 ca e4 c7 3b f4 45 b1 be 0d c0 32 3e e2 28 13 3e
       0.006100272 -0.34623682 0.17456074 0.14371064
000370 23 dc eb 3d 88 00 77 3e 01 3c 23 3f c5 73 2a be
       0.11516597 0.24121296 0.63763434 -0.16645725
000380 a3 38 d8 3c b6 23 3a 3e 20 dd 41 be 92 8f 8c 3e
       0.026394194 0.18177685 -0.18932009 0.27453285
000390 0f 0a fa 3d fa 6d 64 3e 90 48 25 3e ae 54 e6 3d
       0.1220895 0.22307578 0.16140962 0.1124662
0003a0 19 12 c4 be 7f 37 d9 3e b7 1b ca 3e a2 77 f1 be
       -0.38295057 0.42425153 0.3947427 -0.47161585
0003b0 d1 0c 8b 3e ab 8d 1f bf 52 74 61 3e 1f 0a 5b bd
       0.27158216 -0.62325543 0.22017029 -0.05347645
0003c0 0c 7e 79 be db 7b 1d bf 16 cb 7e 3e 13 82 ca 3e
       -0.2436449 -0.61517113 0.24882159 0.39552364
0003d0 6a 80 c0 be d5 d7 a0 3d e4 b5 14 3d 14 69 d1 be
       -0.37597972 0.07853667 0.036306277 -0.4090048
0003e0 2d 9e 01 bf 61 75 5f bd ff 68 20 be 78 a9 3b 3e
       -0.5063198 -0.0545553 -0.15665053 0.18326366
0003f0 17 40 0c 3e eb bc 83 bd 2d 4b 90 be 67 0a b9 bc
       0.13696323 -0.064325176 -0.28182355 -0.022587968

fc3.bias f4 [4]
000000 5e d3 6f 3f 8e 2f 37 3f 99 91 86 3f 77 c9 66 3f
       0.93681896 0.7155694 1.0513183 0.9015116
