weights/DQN_model_weights_C1250.pth (torch_old, 28405 bytes, 6 tensors)

fc1.weight f4 [64, 37]
0	0x3ee761b4	0.4519173
1	0xbfc7ab9c	-1.5599246
2	0xbd59c626	-0.053167485
3	0xbf250fa5	-0.64476997
4	0x3f56c168	0.83888865
5	0xbf98b3b7	-1.1929845
6	0xbe35f4ec	-0.17769212
7	0x3e9f8380	0.31155014
8	0xbe99c973	-0.30036506
9	0xbfa6b7c7	-1.3024834
10	0xbe904282	-0.2817574
11	0xbee13b33	-0.43990478
12	0xbecefe34	-0.40428317
13	0xbebfdc62	-0.37472826
14	0x3e255f90	0.16149735
15	0xbdfffb26	-0.12499075
16	0xbe55bd37	-0.20872961
17	0x3ce225da	0.02760594
18	0xbf885d33	-1.0653442
19	0x3e7d02ea	0.24708143
20	0xbe2ff502	-0.17183307
21	0xbebb2e61	-0.36558822
22	0xbdc46a2d	-0.09590564
23	0xbd8606e2	-0.065442815
24	0xbf0af7a2	-0.5428411
25	0xbf410267	-0.7539429
26	0xbe76f96d	-0.24118586
27	0x3ecf91d0	0.40540934
28	0xbf3a4bca	-0.72771895
29	0xbe14a380	-0.14515495
30	0xbdb56ed1	-0.08859027
31	0xbef6432f	-0.48098132
32	0xbe0634fa	-0.13106146
33	0xbefdb34b	-0.49550852
34	0xc0074b01	-2.1139529
35	0x3d6712b4	0.05641432
36	0xbdb12a24	-0.08650616
37	0x3d394ccf	0.045239266
38	0xbe19ab7d	-0.15006824
39	0xbd0a32d6	-0.033739887
40	0x3cad334c	0.021142624
41	0xbd77910e	-0.06044107
42	0xbda346d0	-0.07972491
43	0xbf4ea2d8	-0.8071723
44	0xbe8592cf	-0.2608857
45	0xbedc8c7e	-0.43075937
46	0xbefe7640	-0.49699593
47	0xbf7d4ae4	-0.989424
48	0x3e2848bc	0.16433996
49	0xbe874284	-0.26417935
50	0x3e22d61b	0.15901987
51	0xbf70e09c	-0.94092727
52	0xbe9d2fda	-0.3070057
53	0xbe926e75	-0.28599897
54	0xbe00161f	-0.12508439
55	0xbcfaa8bf	-0.030598043
56	0x3f1b7c6d	0.60736734
57	0xbf4c047c	-0.7969434
58	0x3d522e5c	0.051313743
59	0xbc6818bf	-0.014166056
60	0xbd37e064	-0.04489173
61	0xbd9d5d13	-0.07683768
62	0xbf26a532	-0.6509582
63	0xbe0921a1	-0.13391735
64	0x3c7f994b	0.015600513
65	0x3e2badb7	0.16765486
66	0x3ed16cbc	0.4090327
67	0x3e8c32da	0.27382547
68	0xbda4efbe	-0.0805354
69	0xbe39ac23	-0.18132071
70	0xbf51e7e2	-0.8199445
71	0x3f23989e	0.6390475
72	0xbd773ae7	-0.060358908
73	0x3d064a74	0.032785848
74	0xbf02c93a	-0.510883
75	0x3e900076	0.28125352
76	0x3e7cf2dd	0.2470202
77	0x3da1af6d	0.07894788
78	0x3e58bc91	0.21165682
79	0xbf3b9f98	-0.73290396
80	0xbd800cee	-0.06252466
81	0xbe8fd9fe	-0.28096002
82	0x3e98dd59	0.29856375
83	0x3c0f6606	0.008752352
84	0xbdbb45d6	-0.091441795
85	0xbe6b7acb	-0.2299606
86	0xbe8dfe67	-0.27733156
87	0x3e80b27d	0.25136176
88	0x3ec82af8	0.39095283
89	0xbf1de7a2	-0.6168157
90	0x3e0622f3	0.1309927
91	0x3dd859bd	0.10563991
92	0x3e84d47f	0.25943372
93	0x3e368fff	0.17828368
94	0x3d49634a	0.049166955
95	0xbf337610	-0.70102024
96	0x3e7c4528	0.24635756
97	0xbf278f9c	-0.65453506
98	0x3eed48ff	0.46344754
99	0xbf946c75	-1.1595598
100	0x3e28ddca	0.16490856
101	0x3d5eae35	0.054365356
102	0xbe0a5ab9	-0.1351117
103	0xbd5f7448	-0.054554254
104	0xbdb3906d	-0.087677814
105	0x3ce9d923	0.028545922
106	0xbef37ab5	-0.47554556
107	0xbd65ded2	-0.0561207
108	0x3eaf70af	0.34265658
109	0xbdc63eaf	-0.09679925
110	0xbd0caf3b	-0.0343468
111	0x3e973336	0.29531258
112	0xbf828681	-1.0197297
113	0x3ebd462d	0.36967602
114	0xbfa2f12e	-1.2729852
115	0xbf75aae2	-0.9596387
116	0xbefb415e	-0.4907331
117	0x3ee4a4d8	0.44657016
118	0x3eb5f561	0.35538772
119	0x3d91746f	0.07102286
120	0xbf435a49	-0.7630964
121	0xbe3ee347	-0.18641387
122	0xbd8026bd	-0.06257389
123	0x3e2b17f6	0.16708359
124	0xbe8ec2f8	-0.27883124
125	0x3eefc793	0.4683195
126	0x3e0c518e	0.13702986
127	0xbfa7f181	-1.3120576
128	0xbf8ffa84	-1.1248326
129	0x3ea3a448	0.31961274
130	0xbf1d2dda	-0.6139809
131	0xbf457ac9	-0.7714048
132	0xbe414ddf	-0.18877362
133	0x3eaabc65	0.3334686
134	0xbe4897bb	-0.1958913
135	0xbfa7d9e9	-1.3113376
136	0x3e183f2f	0.14867853
137	0x3c3aab9f	0.011393457
138	0x3d903715	0.07041756
139	0xbe2f2ac8	-0.17106164
140	0xbeb4eb3d	-0.35335723
141	0x3eab8656	0.33500928
142	0xbf096421	-0.5366841
143	0x3d5b28dc	0.053505763
144	0xbec28d2e	-0.37998337
145	0xbf1bae37	-0.60812706
146	0x3d2b82dd	0.041872848
147	0x3c60dd83	0.0137246875
148	0xbe9367ae	-0.2879004
149	0xbee6e03a	-0.45092946
150	0xbe7a96e2	-0.2447162
151	0xbe76a55b	-0.24086516
152	0xbeca220f	-0.3947911
153	0x3ccf2500	0.025286198
154	0xbee75f06	-0.45189685
155	0xbe0fc0bd	-0.14038368
156	0xbee581f9	-0.44825724
157	0x3ef40fdd	0.47668353
158	0xbcdb6c18	-0.026784942
159	0xbe87ab1e	-0.2649774
160	0xbd5333d7	-0.05156311
161	0xbf8ec37c	-1.1153407
162	0xbee2c92b	-0.44294104
163	0xbea341b6	-0.3188607
164	0xbedf0bf6	-0.43563813
165	0xbe86c57a	-0.26322538
166	0xbe8b6a0d	-0.27229348
167	0x3e5e9fe2	0.21740678
168	0xbe732442	-0.237443
169	0xbe776e53	-0.24163179
170	0xbe2ab382	-0.1667004
171	0xbe6890b1	-0.22711445
172	0xbd8df28d	-0.069310285
173	0x3da37d4a	0.07982881
174	0xbf8b0b44	-1.0862813
175	0xbf12b7cb	-0.57311696
176	0xbed46d44	-0.41489613
177	0xbf066b27	-0.5250725
178	0x3efc57dc	0.4928578
179	0xbe2f8aa3	-0.1714273
180	0xbda8c665	-0.08240966
181	0xbba1a051	-0.0049324413
182	0x3ed58563	0.41703328
183	0xbe9c3799	-0.30511168
184	0x3cdcdb7f	0.026960133
185	0x3e295adb	0.16538565
186	0x3de2ff56	0.11083858
187	0xbf0878e7	-0.5330948
188	0x3ee8b36c	0.45449388
189	0xbdd528cf	-0.10408174
190	0xbda2f59e	-0.07957004
191	0xbe483da7	-0.19554769
192	0x3e9b3f8b	0.30321917
193	0xbdfef47f	-0.12448978
194	0xbbe6ab5d	-0.007039471
195	0xbd63cab1	-0.055613223
196	0xbf051d02	-0.5199739
197	0x3e199d87	0.15001498
198	0x3ee1c8e6	0.44098586
199	0x3e2de93e	0.16983506
200	0xbecd7f2e	-0.40136093
201	0xbc6fe784	-0.0146426
202	0xbd8ea54e	-0.06965123
203	0x3e8a7d2e	0.2704863
204	0xbeaca502	-0.3371964
205	0x3e71cc42	0.23613074
206	0xbdb81f5c	-0.08990356
207	0x3e7bda07	0.2459489
208	0xbed46288	-0.41481423
209	0xb9af18ee	-0.00033397175
210	0x3c07a1ac	0.008278292
211	0xbf025e1d	-0.50924855
212	0xbdf09355	-0.11746851
213	0x3e29d5fc	0.16585535
214	0x3d9406c6	0.072278544
215	0xbf394115	-0.7236493
216	0x3eb27010	0.34851122
217	0xbc2418ae	-0.01001565
218	0x3e10753f	0.14107226
219	0xbe7511bb	-0.23932545
220	0x3d2906ec	0.041266367
221	0x3c5c7684	0.013455991
222	0x3dca6192	0.09881891
223	0x3d2755d8	0.04085335
224	0x3ec693c3	0.38784608
225	0xbd6d93a5	-0.058002133
226	0xbe5c3bb5	-0.21507151
227	0x3dc1843c	0.0944905
228	0xbd0d93f2	-0.03456492
229	0xbd36e950	-0.044656098
230	0xbf391db5	-0.72310954
231	0xbc832884	-0.01601053
232	0x3d9f9d11	0.0779363
233	0x3e08d9f8	0.13364398
234	0xbdfcb3de	-0.123389944
235	0x3dcfd43d	0.10147903
236	0xbe8976c3	-0.2684842
237	0xbde0582e	-0.10954319
238	0xbe45d4b8	-0.19319427
239	0x3d95eedd	0.0732095
240	0x3d7a6257	0.06112894
241	0x3e6228bd	0.22085853
242	0xbded4e82	-0.1158724
243	0x3eb87e8a	0.36034042
244	0xbd5e5066	-0.054275893
245	0xbebde404	-0.37088025
246	0x3e4fbdc5	0.20287235
247	0x3e7c5d4f	0.2464497
248	0x3b246af1	0.0025088156
249	0xbef3fa05	-0.47651687
250	0xbe68ffdf	-0.22753857
251	0xbf346e67	-0.7048096
252	0xbd2d671a	-0.042334653
253	0xbf9a789f	-1.2068061
254	0x3e80fcc4	0.25192845
255	0x3ea67a7c	0.32515323

fc1.bias f4 [64]
0	0x3ed520e9	0.4162667
1	0xbe8b6d03	-0.27231607
2	0xbf26f1c9	-0.65212685
3	0x3dd7b11f	0.1053183
4	0x3dc52326	0.09625845
5	0xbe635b43	-0.22202782
6	0xbe1821b6	-0.1485661
7	0x3c882043	0.016616946
8	0x3f245d1b	0.6420457
9	0xbeb3e030	-0.3513198
10	0x3f1c66c4	0.6109431
11	0x3f04c4eb	0.5186297
12	0x3da0b405	0.07846836
13	0xbe76fd8e	-0.24120161
14	0xbd23988c	-0.039940402
15	0x3cbb95db	0.022898605
16	0xbebe2350	-0.37136316
17	0xbd82bc02	-0.06383516
18	0x3ef00931	0.46882012
19	0xbe810b4b	-0.25203928
20	0xbec1e755	-0.37871805
21	0xbe8bf69f	-0.27336594
22	0x3dbf0f1f	0.09329056
23	0x3e34b3ab	0.17646663
24	0xbf0a91bd	-0.5412863
25	0xbecb2cdf	-0.3968267
26	0xbe640c03	-0.22270207
27	0x3ef6cac8	0.48201585
28	0x3dcf2667	0.101147465
29	0x3d177aab	0.03698222
30	0xbe094e93	-0.1340888
31	0x3e0e8ab4	0.13920099
32	0x3e21f689	0.15816702
33	0xbeae4f51	-0.3404489
34	0xbdeb325c	-0.11484215
35	0xbc3a6143	-0.011375728
36	0xbedbc505	-0.4292375
37	0x3d64f625	0.055898804
38	0xbed4b1a4	-0.4154178
39	0xbed36d1e	-0.41294187
40	0x3e8063fe	0.25076288
41	0xbd96a28b	-0.07355221
42	0x3daba0a1	0.08380247
43	0xbeaeaf48	-0.34118104
44	0xbeaa1f54	-0.33227026
45	0xbd844004	-0.064575225
46	0xbe981c6c	-0.29709184
47	0xbdb65089	-0.089020796
48	0x3c72eef9	0.014827483
49	0xbd54a80a	-0.051918067
50	0xbecba915	-0.39777437
51	0x3e1a7a9d	0.15085836
52	0x3e009d81	0.12560083
53	0x3d1f5d08	0.03890708
54	0x3d2aee98	0.041731447
55	0xbeb76760	-0.35821056
56	0x3d8b6c23	0.06807735
57	0xbedf788a	-0.43646652
58	0x3c8e7891	0.017391475
59	0xbe470b2f	-0.1943786
60	0xbdeaf978	-0.11473364
61	0x3e89fb3e	0.26949495
62	0xbe97e06c	-0.29663408
63	0xbe2b3002	-0.16717532

fc2.weight f4 [64, 64]
0	0x3f427505	0.7595981
1	0x3e1e61f5	0.15467055
2	0xbdb49df6	-0.08819191
3	0xbee396ef	-0.4445109
4	0x3ebca4f4	0.368446
5	0x3e85d5dc	0.26139724
6	0x3e25cb4a	0.1619083
7	0xbe8160f7	-0.2526929
8	0xbe057ba7	-0.13035451
9	0xbda7fb72	-0.08202256
10	0xbe097780	-0.13424492
11	0x3e22cd18	0.1589855
12	0xbe2e01bc	-0.16992849
13	0xbd69c2a1	-0.05707038
14	0x3d486f08	0.048934013
15	0x3f801b69	1.0008365
16	0xbeee8bb8	-0.46590972
17	0x3f06b81f	0.52624696
18	0x3f586860	0.84534264
19	0x3e41518e	0.18878767
20	0xbe4ff49a	-0.20308152
21	0x3dbdd0e6	0.0926836
22	0xbee0cb74	-0.43905222
23	0x3ef03fe6	0.4692375
24	0x3ea6b48b	0.32559618
25	0x3ed390ff	0.4132156
26	0xbe88f482	-0.26749045
27	0x3e9e6ca8	0.30942273
28	0xbefd32f6	-0.49452943
29	0x3f1c1d22	0.60981953
30	0xbe70d6d4	-0.2351945
31	0xbe612a4a	-0.21988788
32	0x3dac09d2	0.084003106
33	0x3e63ed77	0.22258554
34	0x3ecc41b6	0.39893883
35	0x3eb335d3	0.35002002
36	0x3d571232	0.052507587
37	0x3e375924	0.17905098
38	0x3eb810af	0.3595023
39	0xbe328673	-0.17434101
40	0xbd22be8d	-0.039732505
41	0x3eab5cd5	0.33469263
42	0xbe85881c	-0.26080406
43	0xbd9c1aa2	-0.07622267
44	0x3dcf9355	0.10135523
45	0x3f1d236f	0.6138219
46	0x3d7edddc	0.0622233
47	0x3ec1da40	0.37861824
48	0x3e211928	0.15732253
49	0x3d82c902	0.063859954
50	0x3e1f8f30	0.15581965
51	0x3da2df58	0.07952756
52	0xbf617290	-0.88065434
53	0xbe8dba3f	-0.27681157
54	0x3f05eda0	0.5231571
55	0x3f2433a2	0.64141285
56	0xbea9c6d7	-0.33159515
57	0x3e29cc3a	0.16581813
58	0x3e01ee8c	0.12688655
59	0xbf5aa0eb	-0.8540179
60	0x3ee1dbbe	0.44112962
61	0xbe922092	-0.28540474
62	0xbdfc685e	-0.12324594
63	0x3ea18143	0.3154393
64	0x3d12366a	0.035696425
65	0x3e8b3ff3	0.27197227
66	0x3e3cf2a6	0.18451938
67	0x3e21cbfb	0.15800469
68	0x3d3bf34d	0.045886327
69	0x3e129e75	0.14318259
70	0x3dad2645	0.08454565
71	0x3e6894f5	0.22713073
72	0x3ef3d6c7	0.476248
73	0x3eac1d3c	0.33616054
74	0xbe136ea1	-0.1439767
75	0x3d5e92df	0.054339286
76	0x3cc4e8af	0.024036733
77	0xbdb56e0a	-0.08858879
78	0x3e227f0c	0.15868777
79	0x3ebce17e	0.36890787
80	0x3dd9b66c	0.10630497
81	0x3eddd390	0.43325472
82	0x3ea577e1	0.32318023
83	0x3e937807	0.2880251
84	0x3e8ddd4a	0.27707893
85	0x3e37764f	0.17916225
86	0x3c816dfd	0.015799517
87	0x3f0323b0	0.5122633
88	0x3eb0b5c0	0.34513664
89	0x3d258e39	0.040418837
90	0xbed61f05	-0.4182054
91	0xbe20d578	-0.15706432
92	0x3ebe1d4d	0.3713173
93	0xbd0c148c	-0.034199283
94	0xbe533d5d	-0.20628877
95	0xbf33264f	-0.6998033
96	0xbe2cedc7	-0.1688758
97	0x3d8d4f90	0.06899941
98	0x3e788f9d	0.24273534
99	0x3c5b272f	0.013376041
100	0x3d9f8d1c	0.07790586
101	0xbe4a9557	-0.19783531
102	0x3e476911	0.19473673
103	0xbf3c7cd3	-0.73627967
104	0x3efb1542	0.49039656
105	0x3f3655df	0.7122478
106	0xbdb7e527	-0.08979254
107	0x3e6c1ea8	0.2305857
108	0xbe55d361	-0.20881416
109	0xbe3d9c9a	-0.1851677
110	0xbdfb5801	-0.12272645
111	0x3f193eea	0.59861624
112	0x3f3a83bf	0.7285728
113	0xbd747d36	-0.059689723
114	0x3f0c241b	0.5474259
115	0x3e17a806	0.1481019
116	0xbddf63b0	-0.10907686
117	0x3e0940f3	0.13403682
118	0x3f5efeb3	0.8710739
119	0xbdb01993	-0.08598628
120	0xbe586423	-0.21131949
121	0xbf139809	-0.5765386
122	0x3d6f58c9	0.05843428
123	0x3f16f77c	0.5897138
124	0xbe78bb4e	-0.24290201
125	0x3e62cdd7	0.22148834
126	0xbdbfa26d	-0.09357152
127	0xbe6fac36	-0.23405537
128	0x3e2079eb	0.15671508
129	0x3e9db84b	0.30804667
130	0x3e0445f6	0.12917313
131	0xbddfba57	-0.109242134
132	0xbd9e8f62	-0.07742192
133	0xbba28a98	-0.0049603693
134	0x3e296124	0.16540962
135	0xbeb2c1cf	-0.3491349
136	0x3eae757b	0.34074005
137	0x3e55f211	0.20893122
138	0xbdc61a0c	-0.09672937
139	0x3eff3508	0.49845147
140	0x3de28263	0.110600255
141	0x3eaa1a4a	0.33223182
142	0x3ed22d53	0.41050205
143	0x3edd86f2	0.43267018
144	0x3efe5a2d	0.49678174
145	0x3eba8486	0.36429232
146	0xbd58497a	-0.052804448
147	0x3d9fe391	0.07807077
148	0xbe946eb4	-0.2899071
149	0x3e4a1a15	0.19736512
150	0xbe09b5f9	-0.13448323
151	0x3f124897	0.57142013
152	0x3e505b65	0.20347364
153	0x3eb4e317	0.35329506
154	0xbe50c825	-0.20388849
155	0x3e1071a4	0.1410585
156	0x3e1a4dde	0.15068766
157	0x3ea5f925	0.32416645
158	0xbf4e9417	-0.8069472
159	0xbe1600bb	-0.14648716
160	0xbdcebf56	-0.10095088
161	0xbe311783	-0.17294125
162	0x3d738bf2	0.059459634
163	0x3f057817	0.5213637
164	0x3e61cd67	0.22051011
165	0xbea0e0aa	-0.31421405
166	0x3e57e4d4	0.21083385
167	0x3c1cc374	0.009568084
168	0xbee04253	-0.438006
169	0xbf185176	-0.594993
170	0xbd5d37fb	-0.054008465
171	0x3ea8e89d	0.3298997
172	0x3f67f61f	0.90609926
173	0xbe034fc7	-0.12823401
174	0x3e26619a	0.1624817
175	0x3dbbaa8f	0.09163391
176	0xbdb51125	-0.08841161
177	0x3bd9c23d	0.0066454695
178	0x3e9bc191	0.30421117
179	0x3f156c5d	0.58368474
180	0x3e5b7313	0.21430616
181	0x3dbb591d	0.091478564
182	0x3f2ad3e8	0.66729593
183	0x3e8b78ce	0.27240604
184	0xbddb1f31	-0.10699309
185	0xbeb8cd09	-0.3609393
186	0xbe414dba	-0.18877307
187	0x3f29c154	0.6631062
188	0xbe8029ee	-0.2503199
189	0xbeb63296	-0.3558547
190	0x3c0ab655	0.008466323
191	0xbe781b9c	-0.24229282
192	0xbd69910e	-0.0570231
193	0xbe2a29e6	-0.16617545
194	0x3d9b2d51	0.07577003
195	0xbe1a199e	-0.15048835
196	0xbd1a7c8e	-0.03771644
197	0xbd1b1088	-0.037857562
198	0xbd4970d6	-0.049179874
199	0xbdbaeda3	-0.09127357
200	0xbe0a97a3	-0.13534407
201	0xbd263115	-0.040574152
202	0xbd784b95	-0.060618956
203	0x3d7a70a1	0.061142568
204	0xbd8e7b93	-0.06957164
205	0x3d8856ec	0.06657204
206	0xbd1b13f7	-0.037860837
207	0xbda1a285	-0.07892326
208	0xbd9001de	-0.07031606
209	0xbd753e61	-0.059873942
210	0xbd09aa77	-0.033609834
211	0xbd569252	-0.052385636
212	0x3c237290	0.009976044
213	0x3d8b93b2	0.0681528
214	0xbd04f8dd	-0.032463897
215	0x3d0c6db2	0.0342843
216	0x3cb0f310	0.021600276
217	0x3d19a8f8	0.037514657
218	0x3cec6d5e	0.028860744
219	0x3d6b70d5	0.057480652
220	0x3d8fddea	0.070247486
221	0xbe1fe216	-0.15613589
222	0x3ceebbe6	0.029142331
223	0xbd3bc715	-0.045844156
224	0xbd82562f	-0.063640945
225	0xbdab50dd	-0.08365033
226	0x3d1e9582	0.0387168
227	0x3da9c7d2	0.08290066
228	0xbe0fe76b	-0.14053123
229	0x3cc907fa	0.024539936
230	0x3d6d87a4	0.057990685
231	0xbc5e17da	-0.013555491
232	0xbc951741	-0.018199565
233	0x3d65fb5f	0.05614793
234	0xbb2d000f	-0.002639774
235	0xbd83b30e	-0.06430636
236	0xbd38a35f	-0.045077678
237	0x3a24e16a	0.0006289693
238	0x3c31a390	0.010842219
239	0xbcaa8dca	-0.020819563
240	0xbcc41ef3	-0.023940539
241	0xbc07ca38	-0.008287959
242	0xbe0ffada	-0.14060536
243	0xbd03aebc	-0.03214906
244	0x3d18d3e6	0.037311457
245	0xbce482b4	-0.027894355
246	0xbcf6dc2d	-0.030134285
247	0x3d934bd3	0.07192197
248	0xbe09b639	-0.13448419
249	0xbe103d7b	-0.14085953
250	0xbdbd4af8	-0.09242815
251	0x3d41e149	0.04733399
252	0xbe22dd0c	-0.15904635
253	0xbd34530f	-0.044024523
254	0xbe1221d5	-0.14270718
255	0xbd2a3259	-0.04155192

fc2.bias f4 [64]
0	0x3e3f2dda	0.18669835
1	0x3e187a48	0.14890397
2	0x3c8acd1f	0.016943512
3	0x3c2f4cb4	0.01069944
4	0x3e28b569	0.16475452
5	0xbe07f785	-0.13278015
6	0x3daed323	0.08536365
7	0xbd921d02	-0.07134439
8	0x3f2b6480	0.66950226
9	0x3f85c733	1.0451416
10	0xbedd6ca5	-0.43246952
11	0x3f39708e	0.7243737
12	0xbe3c36d1	-0.18380286
13	0xbdf86821	-0.12129236
14	0xbcfc077f	-0.030765293
15	0xbddc20f8	-0.10748476
16	0xbd12c8f2	-0.035836168
17	0x3cc7b47a	0.02437805
18	0xbda238c4	-0.079209834
19	0x3f76c4d9	0.96394116
20	0x3f5665b7	0.83748955
21	0x3f915293	1.1353325
22	0xbe2209be	-0.15824029
23	0xbc777a54	-0.015104849
24	0xbe3d3b97	-0.18479763
25	0xbe06a272	-0.13147905
26	0xbe134059	-0.14380015
27	0xbe8bd755	-0.27312723
28	0xbdf1a1f2	-0.11798467
29	0x3f0e966d	0.5569828
30	0xbdf3a294	-0.11896244
31	0x3dfaab54	0.122397095
32	0xbe89421e	-0.26808256
33	0x3ebf4c86	0.3736307
34	0x3dda131d	0.10648177
35	0xbe3d2960	-0.18472815
36	0x3e4f6cc4	0.20256335
37	0xbe38e801	-0.18057252
38	0xbe0be6f2	-0.13662317
39	0x3d988478	0.074471414
40	0xbe937491	-0.2879987
41	0x3f9754b6	1.1822727
42	0x3ef6e6d7	0.48222992
43	0x3aa33dee	0.001245437
44	0x3e79dac9	0.24399866
45	0xbef47603	-0.47746286
46	0x3f5e0448	0.8672528
47	0xbe6f7704	-0.23385245
48	0xbe362be6	-0.17790183
49	0xbe02c553	-0.12770586
50	0xbdec555a	-0.11539717
51	0x3f09bb39	0.53801304
52	0x3cac931e	0.021066245
53	0x3cbe7b74	0.023252226
54	0x3f090e36	0.5353731
55	0xbea7c603	-0.32768258
56	0xbec79719	-0.38982466
57	0xbe91cd46	-0.28476924
58	0x3bcdfaf0	0.0062860176
59	0x3e334fec	0.17510957
60	0xbdc11816	-0.09428422
61	0x3f49d1bb	0.7883565
62	0x3cdcd925	0.026959011
63	0xbe428fba	-0.1900014

fc3.weight f4 [4, 64]
0	0x3d870354	0.06592432
1	0x3e4f74dc	0.20259422
2	0x3e7fc9a8	0.2497927
3	0xbd932622	-0.07185008
4	0x3d819020	0.06326318
5	0x3d820074	0.06347743
6	0x3d283c68	0.041073233
7	0x3db95f15	0.090513386
8	0x3da0846a	0.07837756
9	0x3e5ed45f	0.217607
10	0xbe38172c	-0.1797759
11	0x3e3e4c73	0.1858385
12	0xbee6743c	-0.45010555
13	0x3dcc2489	0.09967906
14	0x3e742d1e	0.23845336
15	0x3e67ad87	0.22624789
16	0xbcecdf57	-0.02891509
17	0x3e33b030	0.17547679
18	0x3e432b2d	0.19059439
19	0x3e9329af	0.2874274
20	0x3e6ce55a	0.23134366
21	0x3e888109	0.26660946
22	0x3e6fc71c	0.23415798
23	0x3ef05b25	0.46944538
24	0x3e71cd6e	0.23613521
25	0xbe481b21	-0.19541599
26	0xbf454684	-0.77060723
27	0xbe0d117a	-0.13776198
28	0x3b18cd3f	0.0023315696
29	0x3d972924	0.07380894
30	0x3d5680aa	0.052368797
31	0x3d53aff3	0.05168147
32	0x3dfc8118	0.1232931
33	0xbd9b7e17	-0.07592409
34	0x3d3ac271	0.04559559
35	0xbe6de084	-0.23230177
36	0x3d5a3260	0.053270698
37	0x3d9bba6b	0.07603916
38	0xbe164a03	-0.1467667
39	0x3e92b665	0.2865478
40	0x3cd6b2dd	0.026208336
41	0x3e91d96c	0.28486192
42	0x3dfa19ef	0.12211978
43	0xbd046a91	-0.032328192
44	0x3e07eb11	0.13273264
45	0xbdd2baa7	-0.10289507
46	0x3e8c38d6	0.27387112
47	0x3e8e856b	0.27836165
48	0xbf4c5081	-0.7981034
49	0x3e4de981	0.20108606
50	0x3db13d15	0.086542286
51	0x3ddd15a8	0.10795146
52	0x3e0b598c	0.13608378
53	0x3d098ed1	0.033583466
54	0x3c5d72e9	0.013516166
55	0xbfa77166	-1.3081481
56	0xbe6118c7	-0.21982108
57	0xbdf5cf7e	-0.120024666
58	0x3e206dc2	0.1566687
59	0xbe1a99eb	-0.15097778
60	0x3d0ed2a4	0.03486885
61	0x3e84e219	0.2595375
62	0x3eb37aa0	0.35054493
63	0x3e0527ea	0.13003507
64	0x3d64934b	0.055804532
65	0x3e7f43de	0.24928233
66	0x3ea0e812	0.31427056
67	0x3c45d638	0.0120749995
68	0x3e195054	0.14972049
69	0x3cb3ae19	0.021933602
70	0x3dc8afae	0.09799133
71	0x3e3166fa	0.17324439
72	0x3e0c6169	0.13709034
73	0x3e877bf6	0.26461762
74	0x3ca0d075	0.01963065
75	0x3e3bc25d	0.18335862
76	0x3e631f59	0.22179927
77	0xbe19bb5f	-0.15012883
78	0x3e750629	0.23928131
79	0x3e7dad51	0.24773146
80	0xbdd7eb26	-0.10542898
81	0x3ddd5d35	0.108087935
82	0x3e5ce87e	0.21573064
83	0x3e467c47	0.19383346
84	0x3ec123b0	0.3772254
85	0x3e8d5627	0.27604792
86	0x3e7c4384	0.2463513
87	0x3ed479f6	0.414993
88	0x3ead3320	0.33828068
89	0x3d907782	0.07054044
90	0xbe4ff5f0	-0.20308661
91	0xbe1af34f	-0.15131877
92	0xbd760cda	-0.06007085
93	0x3c3344f1	0.01094173
94	0x3dcda592	0.10041346
95	0x3c3b594a	0.011434862
96	0x3e68b6b8	0.22725952
97	0x3dbfc48c	0.0936366
98	0x3e51915b	0.20465605
99	0xbdca5ff4	-0.09881583
100	0x3d1dcc39	0.03852484
101	0xbf03dd28	-0.5150933
102	0x3d4b696d	0.04966109
103	0x3e7a426a	0.24439397
104	0x3c03228e	0.008003844
105	0x3eaa4a7c	0.33259952
106	0x3dfc5462	0.12320782
107	0x3dfff2e9	0.12497503
108	0x3d9ba170	0.07599151
109	0xbd9a7f55	-0.07543818
110	0x3e9b2937	0.30304882
111	0x3e9c521f	0.30531403
112	0x3e28a98a	0.16470924
113	0xbd5c8a88	-0.05384305
114	0xbdc721f8	-0.09723276
115	0x3d93bce1	0.0721376
116	0x3e34ae86	0.176447
117	0x3cde4702	0.027133469
118	0x3e73dd40	0.23814869
119	0xbd24c307	-0.040225055
120	0xbeb9f22d	-0.36317578
121	0xbefcbc47	-0.49362394
122	0x3e1b3409	0.15156569
123	0xbdbfc638	-0.09363979
124	0x3dbf04b5	0.0932707
125	0x3cfc6019	0.030807542
126	0x3e5052a0	0.20344019
127	0x3e2c7949	0.16843142
128	0x3d23bb15	0.039973337
129	0x3e362228	0.17786467
130	0x3dca00a9	0.09863407
131	0x3d0e16a5	0.034689564
132	0x3e066d99	0.13127746
133	0x3e730094	0.2373069
134	0x3d919e66	0.0711029
135	0xbe135927	-0.14389478
136	0x3d569553	0.0523885
137	0x3e8a61b5	0.2702767
138	0xbe59d794	-0.21273643
139	0x3e246bce	0.16056749
140	0x3d9f30d1	0.07772983
141	0x3e95fb5e	0.2929334
142	0xbd4226e2	-0.047400363
143	0x3e199ec6	0.15001974
144	0x3d00b19c	0.03141938
145	0x3e4583de	0.19288585
146	0xbc263230	-0.010143802
147	0x3e60e443	0.21962075
148	0x3dd2980b	0.10282906
149	0x3ebd447a	0.36966306
150	0x3e7299d5	0.23691495
151	0x3eec406d	0.46142903
152	0x3cc4de74	0.024031855
153	0xbf20c52f	-0.6280088
154	0xbef08da1	-0.46983054
155	0xbe68616c	-0.22693413
156	0x3d92bf64	0.07165411
157	0x3e87c346	0.2651617
158	0x3dded141	0.10879756
159	0xbdf83c6b	-0.12120899
160	0xbe8944eb	-0.26810393
161	0x3dcc9ab4	0.09990445
162	0x3e532543	0.20619683
163	0xbe8dc6aa	-0.2769063
164	0xbce5fbc3	-0.02807415
165	0x3cf62d33	0.03005085
166	0xbf0a5e5a	-0.5405022
167	0x3e72f1fc	0.23725122
168	0x3decd01a	0.1156313
169	0x3eb1d43b	0.34732231
170	0x3e25a84f	0.16177486
171	0x3e13a7a3	0.14419417
172	0x3e6e180f	0.23251365
173	0x3daee3d3	0.08539548
174	0x3e901668	0.28142095
175	0x3ee1f7da	0.44134408
176	0x3f131689	0.5745626
177	0x3dff74e1	0.12473465
178	0xbd74afb3	-0.059737872
179	0x3da6fddb	0.08153888
180	0x3d8a6abb	0.067586385
181	0xbe058de4	-0.13042408
182	0xbd9160bf	-0.07098531
183	0x3d7ae485	0.06125309
184	0xbed3fd66	-0.41404265
185	0xbef62a98	-0.4807937
186	0x3dcb7580	0.09934521
187	0xbe2984ef	-0.16554616
188	0xbf18ca26	-0.59683454
189	0x3e361627	0.17781888
190	0xbf0f65b5	-0.5601457
191	0x3e7586f2	0.23977259
192	0x3e391396	0.18073878
193	0x3e041e57	0.12902199
194	0x3e80e8cc	0.2517761
195	0xbd8a1caf	-0.06743752
196	0x3e4631f1	0.19354989
197	0xbd9a7dd3	-0.0754353
198	0x3e044500	0.12916946
199	0x3e62ec25	0.22160394
200	0x3e1c788e	0.15280363
201	0x3eaec7ad	0.34136716
202	0x3be6c8e4	0.007042991
203	0x3e5ae553	0.21376543
204	0x3e00785f	0.12545918
205	0xbecd6ece	-0.401236
206	0x3ea61060	0.32434368
207	0xbebb7b03	-0.36617288
208	0x3df0f2d7	0.11765068
209	0x3db5a642	0.08869602
210	0x3e9b59d6	0.30341977
211	0x3e94292a	0.28937656
212	0x3e54da18	0.20786321
213	0x3e84023c	0.25782955
214	0x3e5317c5	0.20614536
215	0x3e117cad	0.14207716
216	0x3ed968cc	0.42462766
217	0xbf218217	-0.63089126
218	0xb95ebc9d	-0.00021241834
219	0xbeadc102	-0.33936316
220	0x3db87419	0.09006519
221	0x3e104982	0.14090541
222	0xbd51f6c1	-0.051260713
223	0x3e0067e5	0.12539633
224	0xbf4d312e	-0.8015317
225	0xbd43520e	-0.047685675
226	0x3e229c5b	0.15879957
227	0xbf80ce74	-1.0063004
228	0xbe2e69ac	-0.17032498
229	0x3ddab1ad	0.1067842
230	0xbe41730a	-0.1889154
231	0x3e25f1d7	0.16205536
232	0xbfaf6ddc	-1.3705401
233	0x3eaa54ba	0.33267766
234	0x3e1b68f9	0.15176763
235	0xbf2de3b0	-0.6792555
236	0x3da62149	0.081118174
237	0xbddceb53	-0.10787072
238	0x3e5090fc	0.20367807
239	0xbdef08c3	-0.11671593
240	0x3ef508ba	0.4785822
241	0xbe1d32aa	-0.15351358
242	0x3cf2545c	0.029581241
243	0x3d5f613c	0.05453609
244	0x3dde2c4e	0.10848294
245	0x3e758ccc	0.23979491
246	0x3e49ccc4	0.19707018
247	0x3e7604a1	0.24025203
248	0x3d03ba02	0.032159813
249	0xbdfb7131	-0.12277449
250	0x3dfd4c7c	0.12368104
251	0xbd9f7ecc	-0.077878565
252	0xbf1b8c91	-0.6076136
253	0x3dbadf50	0.09124625
254	0x3c8f15a2	0.01746637
255	0xbe71d3e8	-0.23615992

fc3.bias f4 [4]
0	0x3f5c46b3	0.8604538
1	0x3f164c65	0.5871032
2	0x3f34a2e0	0.7056103
3	0x3f4446c5	0.76670486
